ecg_stable_lstm_model.pth (torch, 43552 bytes, 24 tensors)

lstm.weight_ih_l0 f4 [128, 12]
00000000: f430 cabd 9b8c 1fbe c522 163c c575 c43c
00000010: 5337 c33d 2748 f63c 135d f73d 3fda 323d
00000020: 1451 2c3d dbc6 f1bd 49e8 80bd da11 06be
00000030: fc42 1b3e 91b0 043e 4151 07be 6a3b 073e
00000040: f18e afbc 4f5e 19be 8c0d a3bd fb7b 7dbd
00000050: 5e34 a1bd a002 dfbd 1873 8cbb 9985 4ebe
00000060: 2db9 103e 329f 1f3e f786 f13c c89e 1a3e
00000070: 25af 3bbc a31d b23c 39dd e13d 6d20 febd
00000080: 8878 f43d df07 28bd 9bc6 00bc b48f 08be
00000090: 3c6e 583d 4486 a23d 3be7 38be bb7e d63d
000000a0: 9437 7b3d 11d6 05bd 00d9 6c3b 1c13 7d3d
000000b0: 7c38 b23d 0d21 69bd d42d 023d 4214 873c
000000c0: 30ad 1b3e 776f 16be 75df fcbc 0c41 3cbc
000000d0: 25d2 6a3d 6bf3 30be 0d5a 21be 0827 833b
000000e0: 0e2d c5bd 5f3f 8bbd 4395 30be c2c9 70bd
000000f0: ab13 a33d 1f49 2dbe 8e14 333e 9cf4 173e
00000100: 0963 a0bd 4dd4 363c 32a3 3b3d 3278 1fbe
00000110: 16f5 783d ad6a 3c3d 3221 e5bc 41c4 613d
00000120: ceef 1b3e 780e 8b3d d71f 06bd 4eae be3d
00000130: 8d72 40be a000 bd3b 5214 1bbd 25f8 623c
00000140: 6a75 88bc ad00 ddbd 65de 2fbd 270b 723d
00000150: 2b37 863a 2bbf b03d 874a 3abc f664 393d
00000160: 1734 c53d dd71 91bc cad4 fa3c 1a2d 6f3c
00000170: 96b1 bcbd 1428 e53d b964 65bd bc84 0f3e
00000180: ce9a 93bd 9835 343c 09cb b23d 91e4 07bc
00000190: a680 0cbe 54cc eabd 2424 cdbd d330 263e
000001a0: 4897 d8bd 5299 efbd 11d8 85bd dc2a 8cbd
000001b0: 9f82 d7bd 64da 1fbe f997 24be 6631 84bd
000001c0: 4496 d3bd 2ebe ea3d 46dc 7ebc 7241 563d
000001d0: 7091 223e 62d5 2a3d da2b 553d b062 3a3c
000001e0: 6a27 183d d122 fb3c b61a cabd 9782 0ebe
000001f0: 7ebe b8bd f2a9 9e3c bc0c 193e 0bf5 e5bd
00000200: 9bc2 77bd b461 29be a0b1 d2bd 6b17 d63d
00000210: 5677 d93d ce36 0f3e 0cc6 8f3d 5e1a d7bd
00000220: 4fac 363e 136d 9a3d 53b8 073e 74ed 2ebe
00000230: e046 e2bd deba 663d bc11 b2bd 8f6b 19be
00000240: 3951 0e3e 4fdb 773d 7573 6dbd f46e a23d
00000250: 2f36 fa3d 6d2b 8d3d 60f2 f7bd 5012 823a
00000260: 439f 02be 0746 fe3d fbc1 85bd 98b6 263b
00000270: a76f cebd a601 78bc 4ddf 9abd 57a9 683d
00000280: 288e 2b3d 3bd7 66bd a563 e5bc cdcc 73bd
00000290: dc71 dabd c7b8 c1bd b012 aa3c aefa faba
000002a0: 93c7 833d 431d c8bd d45d 3f3e 06b3 0ebe
000002b0: c153 e73d d961 033e b480 133e c039 42bd
000002c0: 9f8c 91bd be28 cebc 58fb dd3d cbee ad3d
000002d0: cffb a3bd edfe c4bd 1d82 af3c f4f7 27be
000002e0: 7c3a d73d 8c25 0b3e ceb6 053e cc2d a5bd
000002f0: 45d7 0ebe 4050 67bd 5b74 51bc 765f c73d
00000300: e13e 0bbe 4ce7 0b3c 3051 903d bacb c2bd
00000310: 2bb0 b0bd 9faa 0c3e eb16 03bb e80b f03d
00000320: d7c1 1c3d 6beb 373c e3b7 c03d 7766 553d
00000330: bc1b 7a3d 84e3 d53d 9808 053d f3cc aabc
00000340: 6cd1 fdba 59ba 4bbd 45b0 243e ec0c d7bc
00000350: 89ef 203e ec37 883d 4b64 4cbc b0b7 64bc
00000360: 49a1 aa3d 7f98 babc 0f28 1d3e b157 74bd
00000370: dc17 193e 163d 333e 4bd9 db3d 3ba4 2bbc
00000380: 73b6 02bd 2ac0 f6bc 6ed7 90bd adbc 02be
00000390: 0619 5ebd 3514 973d 9bb0 24be 63e5 c1bd
000003a0: 7861 083e 6463 07be a5b0 013e 7ea0 7a3b
000003b0: 1675 09bb 11bf 05be 3a13 113e 5f60 1f3e
000003c0: f8b0 3fbe 5dab 9b3c 0301 ea3d a21c cb3d
000003d0: eb06 89bd dd41 bcbc e03b 693d 19c0 7abd
000003e0: 95ff 853d 75bb 593a 8389 85ba 4bb9 0cbe
000003f0: dab9 cbbd 1706 01be 614e de3d b650 1ebd
-0.09872618 -0.1558098 0.009163563 0.023981938 0.09532037 0.030063702 0.120782994 0.043665167
0.04206951 -0.11805507 -0.06294305 -0.13092747 0.15162271 0.1295798 -0.1321459 0.13206258
-0.021430464 -0.14977382 -0.07961568 -0.061885815 -0.078713164 -0.108891726 -0.004286181 -0.20168151
0.14133139 0.15588072 0.029483302 0.15099633 -0.011455332 0.021742648 0.11028523 -0.124085285
0.11937052 -0.04102313 -0.007859851 -0.13336068 0.052839503 0.079357654 -0.18056957 0.10473391
0.0613323 -0.032674853 0.0036140084 0.061785802 0.0870218 -0.056916285 0.031781986 0.016489152
0.15202785 -0.14690958 -0.030868271 -0.011490118 0.057329316 -0.17280357 -0.15757008 0.0040024556
-0.09627734 -0.067991965 -0.17244439 -0.05878616 0.07962736 -0.16922425 0.1748831 0.14839405
-0.078313895 0.011159015 0.045809932 -0.15573195 0.060780607 0.04600017 -0.02796993 0.055118803
0.15228197 0.06789869 -0.03274521 0.0931059 -0.18793698 0.005767897 -0.037861176 0.013853108
-0.01665755 -0.107911445 -0.0429367 0.059092667 0.001023983 0.086302124 -0.011370308 0.0452623
0.09629076 -0.01775449 0.030619044 0.014598155 -0.09213559 0.11189285 -0.05600426 0.14015478
-0.07207261 0.010999106 0.08730132 -0.008294241 -0.1372095 -0.11464754 -0.10016659 0.16229562
-0.105757296 -0.116991654 -0.06535352 -0.06844112 -0.10522961 -0.15610653 -0.16073598 -0.064547345
-0.10331395 0.11462055 -0.015555447 0.052308507 0.15875793 0.041707404 0.052043773 0.011376068
0.037146963 0.03065625 -0.09868376 -0.13917004 -0.090207085 0.019368146 0.14946264 -0.11228379
-0.060488325 -0.16541177 -0.102877855 0.104536854 0.10618465 0.1398575 0.07020196 -0.10503076
0.17839168 0.075403355 0.13253908 -0.17082769 -0.110486746 0.056330554 -0.08694789 -0.14982437
0.13898171 0.060511883 -0.057971437 0.07931319 0.12217366 0.068930484 -0.12106776 0.000992367
-0.12756066 0.124157004 -0.065311395 0.0025438424 -0.1007989 -0.015137112 -0.075621225 0.05680212
0.041883618 -0.056357604 -0.028001616 -0.059521485 -0.10666248 -0.094590716 0.020760864 -0.0019148195
0.0643455 -0.09771206 0.18688136 -0.1393548 0.11295272 0.12830295 0.14404565 -0.047418356
-0.071068995 -0.025165912 0.10838956 0.08492812 -0.08007013 -0.09618936 0.021424348 -0.1640318
0.10509202 0.13588542 0.13058016 -0.08065376 -0.13949306 -0.056473017 -0.012784089 0.097350046
-0.13598205 0.008539032 0.07046735 -0.09511514 -0.086273514 0.13736962 -0.0020002674 0.11721021
0.038270798 0.011225562 0.094100736 0.05209967 0.061061606 0.10443786 0.0324789 -0.02084968
-0.0019364781 -0.04973826 0.16082866 -0.026251279 0.15716375 0.06651291 -0.012475084 -0.01395981
0.08331544 -0.022777794 0.15347312 -0.05965394 0.14950508 0.17503771 0.10734805 -0.010476167
-0.03191228 -0.030120928 -0.0707234 -0.12767287 -0.054223083 0.07376901 -0.16082995 -0.0946758
0.13318431 -0.13221508 0.12665041 0.0038242633 -0.002097433 -0.13061167 0.1416749 0.15564106
-0.18719852 0.01900261 0.11425974 0.09917571 -0.066907726 -0.022980625 0.056941867 -0.061218355
0.06542889 0.00083058263 -0.0010188076 -0.13742559 -0.09947558 -0.1259998 0.10854793 -0.03865119

lstm.weight_hh_l0 f4 [128, 32]
00000000: 8459 10be af42 2a3e c84f 273e 1bbb ea3d
00000010: eb81 443d de50 50bd 7f29 1abe 69d9 42bc
00000020: 6313 40bd 78ba 9cbd 7b32 303e 5418 84bd
00000030: 149e ad3d 1b7a 4a3e 91ef eabc 989c f43d
00000040: 3640 91bd 38ce 393e d36f e2bd 5f24 053e
00000050: 926c 2d3e 40be a23d 173f 1dbe b112 153e
00000060: 0f55 a83d 84c6 213e 4102 8cbd 1b72 7f3d
00000070: ec81 103e 5740 363d 55c9 b6bd e45a d3bc
00000080: 4c16 ff3d 2314 33bd ca07 093e c087 9c3d
00000090: 2ab4 8d3c c507 24be 9b73 f4bb 127d ebbd
000000a0: f38e 8cbd 1506 133e 2e0e b9bd d455 873d
000000b0: a084 57be 971d 14bd 035c 42bd e974 19bd
000000c0: 8fcb 0fbd dc50 8c3a 5f13 a03d 3467 a4bd
000000d0: 0388 c0bd ffc8 44be 1e27 e1bd 98ca 8bbd
000000e0: 6de3 2b3d 001b 033e 76ba e2bd 6f2a 0bbe
000000f0: 5819 7c3d 9958 9dbd 24ad 153d 612f 87bd
00000100: e9e1 55bc 1ef0 863c 54f6 fd3c f832 db3c
00000110: d080 2d3d 427c a93d fcab 0d3e e494 223e
00000120: 087b e53d adf3 d2bd b8c0 17be 1222 71bc
00000130: 28ee 19be d657 b83c f3d0 983c 1f32 e63c
00000140: 5341 d73d 9604 0abe 1e02 a3bd edf3 b03d
00000150: 76c0 e2bd 9ad8 3a3e b583 173e 780a fbbd
00000160: d894 b7bd 1a71 debc a6c5 47be 1118 40be
00000170: 79bb 6b3d 2dc7 be3d 47bb 86bd 5364 d0bd
00000180: 8ede 043e c1a9 8bbc 9376 1bbe 0e18 ddbd
00000190: d805 56be 7026 033b 80e5 903d aa9c a83d
000001a0: 0c4d 233e 6ee6 51bd b197 a8bd 6cfc 03be
000001b0: 717e 083d 2c1b f93b 2c9c 8dbc 5891 3cbe
000001c0: fe78 823c 673c 34be d3ca 3fbe 554e 433d
000001d0: 8265 1a3e fbb4 b0bd d0cd 033e 7ac4 dd3d
000001e0: 96e8 3b3d 898f cd3d 44e4 16be 8e03 f83d
000001f0: abc4 98bd d6ea c63d 2455 34be bb24 14bc
00000200: 99dd d23d dfc9 103e eb0f fc3d 8808 d5bd
00000210: 7a19 f7bd a5c2 43be 4f68 03be 0a2a 1e3e
00000220: d8a4 003e e626 dabd 3ae0 de3d 3192 493e
00000230: 6232 3d3d 8716 8e3d 83c5 00bd e616 063d
00000240: bced 21be 44d8 3abe 47de e33d f994 a83d
00000250: 2d02 b23c d6f5 39be 91a7 b0bd 55bf b93a
00000260: 92bd 2bbe 6ac7 5e3d d30b 11bd 021d 2ebe
00000270: 1c8f c63d 7717 e13d 7728 9d3d c9cd 003e
00000280: 5c29 26be 6045 24be 5e30 1e3e 5cac 563c
00000290: 6de8 89bd 6f9e 8c3d 62d8 fb3d 7a90 d5bd
000002a0: e32c acbd 2e13 c2bc 8f66 47bd 764e f63d
000002b0: 2077 5f3d 704d 77bd f759 473e cc93 d5bd
000002c0: 15d7 bebd b1b5 36bd 96ce 9b3d 85ed 8a3d
000002d0: 9e5c d03d eaab e73d 7112 d7bd 41c7 993d
000002e0: 48c8 a7bd 40fe c03c 5459 263d 06b0 06be
000002f0: fa8a ec3b 55bf c73c b8e5 c839 e323 163e
00000300: d55b 4e3d 848e 0ebe 9b14 003e 4a76 04bd
00000310: 2a74 cc3b 05d7 353e 5649 2abe a138 13be
00000320: 67cc d4bd 9122 1a3e 1099 213d cd4e 9a3d
00000330: 431f 163e 5c15 283e a2fd c03c d25b 41be
00000340: ae5f 8d3d 7c9a 073e 8ca1 3dbe b3ee 8abc
00000350: c77d 1e3e d299 e4bd fa37 96bd d339 13be
00000360: f04d f23d b248 3fbc fa91 3bbc ae58 a6bd
00000370: 6d21 71bc af56 8e3d 6d09 893c 6447 2b3d
00000380: af3b f53d aff0 553d a48b 27bd dd36 dbbd
00000390: 9911 bfbd 2df0 df3c 1da3 c2bd e88c 6ebd
000003a0: c10c a43d b65a 28be 31dd 7b3d bea2 e4bc
000003b0: 8469 acbd 35d0 a53d 276f 11be 4942 a33d
000003c0: 9941 20be 12aa 503c b8c1 643d 5fca 8fbd
000003d0: 44ff 2abe 03ee eabb 8ac1 ed3d 30a2 c8bd
000003e0: e929 8d3d 62fa 0e3e 51df ec3d 849a 683b
000003f0: ca4f c7bd 8221 21be 9380 0a3e 8fda 5fbe
-0.14096648 0.16627 0.16339028 0.11461469 0.047975462 -0.05085837 -0.15054892 -0.011892655
-0.04689349 -0.076527536 0.17206757 -0.06449953 0.08477417 0.19773142 -0.028678687 0.119439304
-0.070923254 0.18145072 -0.11056485 0.13002156 0.16935948 0.079464436 -0.15356098 0.14557911
0.08219349 0.15798384 -0.068363674 0.06236468 0.14112061 0.044494953 -0.0892512 -0.025800176
0.12455425 -0.043720376 0.13381878 0.0764308 0.017297823 -0.16018589 -0.0074600703 -0.11498465
-0.06863203 0.14357789 -0.09035908 0.06608167 -0.21046686 -0.03616103 -0.04745103 -0.03746501
-0.035106238 0.001070525 0.07816195 -0.08027497 -0.09400942 -0.19217299 -0.10993789 -0.06825751
0.041964937 0.12803268 -0.11070721 -0.13590406 0.061547607 -0.07682914 0.036542073 -0.06600834
-0.013054349 0.016471919 0.031001247 0.026757702 0.042359173 0.082756534 0.13835138 0.1587711
0.11205107 -0.10300384 -0.1481961 -0.014717596 -0.15032256 0.022502821 0.018654322 0.028100071
0.105105065 -0.13478312 -0.07959388 0.08640275 -0.11071865 0.1824669 0.14796336 -0.12257856
-0.089639366 -0.02715354 -0.1950899 -0.1875918 0.057551835 0.093153335 -0.06578689 -0.10175385
0.12975523 -0.017048718 -0.15181951 -0.10795604 -0.20900667 0.0020011924 0.07075024 0.08233006
0.1594736 -0.051245145 -0.08232058 -0.1288926 0.03332371 0.007602116 -0.017286383 -0.18414819
0.015926834 -0.17601167 -0.18729715 0.047682125 0.15077785 -0.08628269 0.1287148 0.108284906
0.045876108 0.10037143 -0.14735514 0.12110053 -0.074593864 0.0971276 -0.17610604 -0.00904196
0.10296173 0.14139508 0.123077236 -0.10402018 -0.12065406 -0.1911722 -0.1283276 0.15445724
0.12562883 -0.106519505 0.108826116 0.19684674 0.046190627 0.069378905 -0.03143836 0.03273668
-0.15813345 -0.18246561 0.111263804 0.08231539 0.021729553 -0.18160185 -0.08625711 0.0014171401
-0.16771534 0.054389395 -0.035411667 -0.17003253 0.09695265 0.10990804 0.07673734 0.12578501
-0.16226715 -0.1604209 0.15448138 0.013102617 -0.06733785 0.06866156 0.12297131 -0.10427947
-0.08406999 -0.023690786 -0.048681792 0.12026684 0.054556966 -0.060376585 0.19467913 -0.10428581
-0.093183674 -0.04460687 0.076077625 0.067835845 0.10173915 0.11312087 -0.10501564 0.07508708
-0.081924975 0.023558736 0.040612534 -0.13153085 0.0072187157 0.024383226 0.00038318126 0.14662127
0.050380547 -0.13921553 0.1250786 -0.03233937 0.006239434 0.17757805 -0.16629538 -0.14377071
-0.10390549 0.15052249 0.039452612 0.07534561 0.14660363 0.16414398 0.023558442 -0.18882683
0.06903015 0.13242525 -0.18518656 -0.016959524 0.15477668 -0.111621514 -0.073348954 -0.14377527
0.11831272 -0.011675047 -0.011448378 -0.08122383 -0.014717442 0.06950127 0.016728127 0.04181613
0.11974274 0.052231487 -0.040904656 -0.10703824 -0.09329528 0.027336204 -0.09503768 -0.058239847
0.08010245 -0.16440853 0.06149024 -0.027909633 -0.08418563 0.08096353 -0.14202558 0.07971627
-0.15650024 0.01273586 0.055848807 -0.07021021 -0.16698939 -0.0071694865 0.1160918 -0.0979656
0.06892759 0.13962701 0.11566032 0.003549249 -0.097320154 -0.15735438 0.1352561 -0.21860717

lstm.bias_ih_l0 f4 [128]
00000000: e0b2 173e a06b 943c 39f4 17be 6113 0dbe
00000010: 6e06 183e 0474 c23d 970f 983d 9356 663c
00000020: 85ee 053e 11ac 39be 90dd fd3d 716f 0ebe
00000030: 2762 81bd a9f8 203e 9215 c93d d3be b53d
00000040: a743 10be c35a adbd 6c5f 26be 7de3 083e
00000050: b60b 093b 4e5e dabc bde8 56bc 37d1 b7bc
00000060: f385 4dbe 8eae a9bd 6fda 9a3d 9eb7 223e
00000070: e05d c43d 29e6 56bd 99e0 0cbe b40b 903c
00000080: 02d9 273d 78b5 d0bd 5410 8d3d 7613 edbd
00000090: 14a7 333d f5fe 2e3e 0ab6 b03d b51a 45bd
000000a0: 185f edbd 5bf3 f1bd 745c 263e 0773 e53d
000000b0: 9c68 08be c4c2 97bc 3eb1 f73d 0cab aebb
000000c0: 2bda 93bd b3ab abbd 4726 f13d 0152 133e
000000d0: d5e6 1cbe 7946 19be e1a4 0fbe 176d 853b
000000e0: f2cb b73c fdff 30be 9c41 fbbc bf30 26bd
000000f0: aba9 133d 7abf 183e 61e7 d2bd 5f81 303d
00000100: c0f9 1ebe 14b4 c5bd f9c6 23be e131 89bd
00000110: 3cd4 d73d 33b8 ef3d 820b 1ebe d795 173d
00000120: 49c1 373d 29f5 1ebe 6db8 223e da30 adbc
00000130: 40f4 8f3c c0f3 12be 7c9b 8ebd 4ee9 803d
00000140: 6e55 f33d 0cc3 143d 4428 223e 9875 1f3e
00000150: d691 b1bd 4aa2 f83d aa64 bcbd c82e 9839
00000160: 5f11 f73c 2528 43be 05b0 5cbd 99e2 153e
00000170: fb0d febc bf60 b73d 43e0 3ebe 0ea6 ff3d
00000180: 84c5 87bd 5fa7 2ebe b8a6 9bbc 1771 ecbd
00000190: f7df a53d 6595 15bd 0cbc 8f3d 7f1d 11bd
000001a0: e249 1b3d 93b5 d9bd 9b20 b83d 0217 bebd
000001b0: 2c46 3f3e 196b 9cbd 88c3 df3c 3ce5 d13d
000001c0: eba9 21bb 4e76 acbd 38b9 243e 8b70 d6bc
000001d0: dc57 1ebe 288e d63d 9d43 37be b0c2 83bd
000001e0: 7065 553c b410 4cbe bef9 393e 97a3 253e
000001f0: 3a24 823d 8caf 0a3e afe5 783d 5fb1 19be
0.14814329 0.018117726 -0.14839257 -0.13776924 0.14846203 0.094947845 0.074248485 0.014058727
0.13079269 -0.18132044 0.12395775 -0.13909699 -0.06317549 0.15719856 0.09818567 0.088742875
-0.14088307 -0.08464577 -0.16247338 0.1336803 0.0020911521 -0.026656296 -0.013117013 -0.022438629
-0.20070629 -0.08285247 0.07561194 0.15890357 0.09588218 -0.05246559 -0.13757552 0.017583705
0.04097844 -0.101908624 0.0688788 -0.115759775 0.04386051 0.17089446 0.08628471 -0.048121173
-0.11590403 -0.118139945 0.16246206 0.1120358 -0.13321155 -0.018525489 0.12094353 -0.005330449
-0.072193466 -0.083823584 0.11774879 0.14386751 -0.1532243 -0.1496829 -0.1402774 0.0040718424
0.022436116 -0.17285152 -0.030670933 -0.04057383 0.03605048 0.14916793 -0.10298038 0.043092128
-0.1552496 -0.09653488 -0.15993871 -0.06698967 0.10538527 0.11705055 -0.15434077 0.037008133
0.044862065 -0.15523209 0.15890665 -0.021141458 0.017572522 -0.14350796 -0.0696325 0.06294499
0.11881529 0.036318824 0.15835673 0.15572202 -0.08670394 0.12140329 -0.09198888 0.00029026554
0.03015965 -0.19058283 -0.053878803 0.14637221 -0.031012526 0.08954 -0.18640237 0.12482844
-0.0662947 -0.17056035 -0.019000396 -0.11545008 0.080993585 -0.036519427 0.07018289 -0.03542852
0.037912257 -0.10630336 0.08990594 -0.09281732 0.18679112 -0.07637615 0.027314916 0.10248801
-0.002466793 -0.08421002 0.1608628 -0.026176712 -0.15463203 0.10476333 -0.17896886 -0.06433618
0.013024673 -0.19928247 0.18161675 0.16175686 0.06354566 0.13543528 0.06076592 -0.15009068

lstm.bias_hh_l0 f4 [128]
00000000: 989b d23d bcaf bb3d acc8 113e c57f 2abd
00000010: a2cc 14be 362e 0e3e 3907 1e3e 032c 7cbd
00000020: bd30 c53d f4ff 15bd eee8 ba3d 8475 26be
00000030: b260 d4bd 2325 1abe 2685 9dbd 7b1d 62bd
00000040: 33cb 363e 7124 8e3d 9ef7 14be 100e d83d
00000050: 88fd 993d 8843 87bd d0a8 e7bd 5d06 c53d
00000060: d540 1abe f6e4 59be 6549 c73d b373 7d3d
00000070: 9cbb 803d 76e9 a33c f860 bbbc 6248 b33d
00000080: 6762 773d 03f8 033e db92 b4bd 78dd 323c
00000090: 5d3b 30be 93f6 a53d 81b4 493d 145c bc3c
000000a0: 7b38 fabd 41e6 923d d74f 7d3d 94d8 043e
000000b0: 69f5 133e 1b26 193e 96d4 f13d f1fe b4bd
000000c0: 0bcf a6bd 219d 843d a8e7 5d3c 5b47 52bc
000000d0: c9c1 e3bd b212 d5bd 1f7b bcbc cd41 833c
000000e0: 223b eebd acf4 ccbd 246a 403d 715e 41bd
000000f0: f82a 953d 3d10 c53b 1796 cabd a6c8 d1bd
00000100: bfe7 4ebd b38e 17be 140d 023e d45b a13d
00000110: b753 213d 7628 e53d dbd0 1c3c ec54 a33a
00000120: ec3b 7fbd 02e0 953d ad1b 32be 93c9 c6bd
00000130: 3d5e 093e 61f4 b23c ed26 b4bd 7efa 2b3e
00000140: 3539 bf3c cf12 ddbd 40b2 8f3d e359 27be
00000150: 1f04 d8bd d8ad 82bd 48f4 103e d6fc a23d
00000160: 7817 1bbe 06b6 ac3d 1994 553c b831 fabc
00000170: c3ed b6bc 97c1 873d a18d 843d 443a 01be
00000180: 1d96 583d 5786 5c3c c497 2fbe a5c6 62bc
00000190: 6e84 01bd df97 133d 4b47 9d3d b086 22be
000001a0: 8575 96bd bca6 2d3e 0b19 373e efac a6bc
000001b0: c67e 413e 8ca2 3cbd 5313 81bd 5985 94bc
000001c0: 37c1 2dbd 9533 30bd 05df e2bc f7bb 213e
000001d0: a2fd a33d 20b0 b13c 5c0c 3abe 79ec 19be
000001e0: 3689 9dbd fc01 093e 60f3 0a3e 96ad 503e
000001f0: 0f3d 09bd 7039 dc3d 3110 843d 617d 95bb
0.102835834 0.09164378 0.14236706 -0.041625757 -0.14531186 0.13884816 0.15432443 -0.06156541
0.09628437 -0.03662105 0.09126459 -0.16255766 -0.10370006 -0.15053229 -0.07691412 -0.055203896
0.17850952 0.069405444 -0.14547583 0.10549557 0.075190604 -0.066046774 -0.11311495 0.09620354
-0.15063794 -0.21278748 0.09730796 0.061877917 0.06285784 0.020008784 -0.022873387 0.0875404
0.06039658 0.12887578 -0.08817073 0.01091706 -0.17210145 0.08103671 0.049244408 0.022993125
-0.12217804 0.07172824 0.06184372 0.12973243 0.14449085 0.14955942 0.11808126 -0.08837689
-0.08144959 0.064752825 0.013544001 -0.012834395 -0.11120946 -0.104039565 -0.023007927 0.016022587
-0.116323724 -0.10007605 0.046976224 -0.047209207 0.07283586 0.0060138986 -0.098919086 -0.10243349
-0.05051398 -0.14800529 0.12700301 0.07878843 0.039386477 0.11189358 0.009571279 0.0012461222
-0.062313005 0.07318117 -0.1739337 -0.09706416 0.13414855 0.021845045 -0.08796487 0.16794774
0.023342708 -0.10794603 0.0701642 -0.16342883 -0.10547661 -0.06380814 0.14155686 0.07958381
-0.15145671 0.08433156 0.0130357975 -0.030541286 -0.02233017 0.06628721 0.06472326 -0.12619883
0.052877534 0.0134597635 -0.17147738 -0.013841306 -0.031620435 0.036033507 0.07679614 -0.15871692
-0.07346634 0.16958135 0.17880647 -0.020346133 0.18896016 -0.046053454 -0.06302514 -0.018129991
-0.042420592 -0.043017942 -0.027694235 0.15794359 0.08007361 0.021690428 -0.18168777 -0.15031613
-0.076921865 0.13379663 0.13569403 0.20378718 -0.033505496 0.10753143 0.06448401 -0.0045620655

waveform_dense.weight f4 [24, 32]
00000000: 3489 503c a29f 2ebd d5ee d03d 4728 06be
00000010: cb2e 99bd 3af1 d5bd 6eaf 74bd 5b5a 723c
00000020: 58c0 993c abc2 11be cf61 22bd d229 dbbd
00000030: acac 1f3e 554e ff3c 0019 80bd 53df df3d
00000040: e36e 613c 5096 adbd 1755 1dbd 749d af3d
00000050: 5624 243c e362 babc 2090 e53c 98fc 2f3e
00000060: ebb4 06be 10fe 1abd 4d02 9f3d 4f4c 5dbc
00000070: 9923 0bbe 9fe0 793d 528d 7b3d acbd efbd
00000080: e21f c4bd 4b68 273d 0fdf ea3d 8542 51bd
00000090: 8cfc 98bd 3114 213e eb8f 8abd ea5c c53d
000000a0: 3e31 a2bc 3f80 f2bd 70c0 26be c0ad 133d
000000b0: ed62 263c 5971 22be 6a53 2e3e c5b1 8abd
000000c0: 1354 48bd d1c8 e13c a891 303e 0579 d3bd
000000d0: 0da1 993d a97a 28bc a9ab b03d b88b bdbc
000000e0: 8fc7 9bbd 350e ac3d 6bcc cd3d aec9 d33d
000000f0: ca47 b23c b892 4c3e 5cd3 78bc 0472 0dbd
00000100: 173b 54bd 0ea3 a93c b3bf 143e a061 01be
00000110: 40b6 04bd 79f9 17bd d338 963a d4f7 91bd
00000120: 95f1 123e 3767 973c 2571 09be 655e 01be
00000130: 35dd 73bd 1274 d73d ad26 1c3e da80 e1bc
00000140: fa93 01be 0607 293e a15b 0c3e d855 2abd
00000150: ad36 35bc d1e3 f23c 232f f73d 2368 f13d
00000160: ade9 773d a7e5 0bbe 579d ee3c c1fd b4bd
00000170: ec33 1bbe fcfd a13d 06ab 0fb9 5169 48bd
00000180: 7eed 773c ff9e 85bd 8d74 b9bd c16c ea3c
00000190: b477 683e 6716 ef3d e83e 1bbd 5460 c2bd
000001a0: 231e afbd b771 d33d 292e 933d b403 e43d
000001b0: b6df 74bd 41b8 783d 1b39 d53c 4db7 edbd
000001c0: 43ab 0c3e 6acb 323d 86d9 793d 4e24 0fbe
000001d0: 6240 d6bc 0e97 2bbe b3f8 0a3e a322 823d
000001e0: 1238 96bc 539f 0a3e c4cf 063e e24a 25be
000001f0: 3cc5 2d3d bf21 9a3d d7f5 1d3e d411 bc3d
00000200: 2f84 2dbc d81d f53d 02af 233e 711a 6dbd
00000210: 093a 353e 07eb 953d f294 a73d 4147 153e
00000220: 9dfb 323d 077e 0abe 2279 5b3e 83e6 b23d
00000230: d4dd d13c 315f 6abd 2ae6 fdbc d3c4 93bc
00000240: 09ab 9fbd 3e1c 82bd c1f8 4c3e 6739 08bd
00000250: cc1b 18bd 199f 3b3d e86c 253c 32a6 4dbe
00000260: c281 19bd 6c6a 103d 5c05 e63c 1842 91bd
00000270: f4ac 083e 8bf5 6d3c 9147 0fbe 62ad fa3d
00000280: 1e48 cf3c 3937 16be b938 f8bd 6b7d 0abe
00000290: f1a3 8abc ce35 d83c 7c91 a73d 2fb9 1dbe
000002a0: 287f 0fbe 2f1f bc3d c8c5 30be d45c 98bd
000002b0: b75a 163e bab0 10bd 0526 d0bb 509d 3c3d
000002c0: 7219 3b3e 8740 05be f327 f2bd 7e8d b53d
000002d0: 95e4 663b 25b4 0ebe b9aa 813d b77b d5bd
000002e0: 3a22 efbc 24e1 e03d f489 dcbb 9934 cfbd
000002f0: 22ca 413e cb20 f8bd 9fc7 52bd a69e c3bd
00000300: 832b 3d3e 6032 0abe 18a9 ad3c 9824 9f3c
00000310: a709 ccbd 56f4 2d3d f82c e03d 7abd 2dbd
00000320: af0a 21bc c630 fc3d 0ea7 fc3d a06d 323c
00000330: 63bb b3bd 455f a43b 1670 64bd 3eea 4f3e
00000340: 219b 173e f5e1 1abe 2103 dfbd af49 5cbd
00000350: 5c26 69bd 3bfb ca3d 3066 483d cf11 9c3c
00000360: b875 dfbc 9ebf ad3d b64a aabd b56f b1bd
00000370: 3c1e 173d 0d27 aabd 5def f0bc dbe3 d73d
00000380: 7849 1fbe bbda eb3a ebb7 23be 3c86 34be
00000390: 267e fc3d 8704 cc3c 909d b33c 1bb9 183e
000003a0: 9043 30be 322a 0ebe 0fd2 063d d2d0 6f3d
000003b0: b5b9 183e 1b5e fbbc e898 fabd d03b 4dbe
000003c0: 4e29 bebd 277b 89bd f8fc 493e 201d 0f3d
000003d0: 1341 af3d b9c4 1fbe 2481 10bd a6ac 78bd
000003e0: dee4 84bc 9267 cfbd 3ab6 5c3d a1d1 123e
000003f0: 8457 633c 2739 d13d 2a88 2e3d 9b25 f5bd
0.012728024 -0.042632706 0.102018036 -0.13101302 -0.07479628 -0.10446401 -0.059737615 0.01479205
0.018768474 -0.14234416 -0.03964406 -0.10701336 0.15593213 0.031165281 -0.06254768 0.109312676
0.013759348 -0.084759355 -0.038411226 0.08574954 0.010018429 -0.022752231 0.028022826 0.171862
-0.13154952 -0.03783995 0.07764111 -0.013506963 -0.13587798 0.06100523 0.06141407 -0.11706099
-0.09576394 0.040870946 0.11468326 -0.05108883 -0.074700445 0.15730359 -0.067657314 0.096368626
-0.019798871 -0.11840867 -0.16284347 0.036054373 0.010155422 -0.15863551 0.17024007 -0.06772188
-0.048908304 0.027561577 0.17243063 -0.10325817 0.07501421 -0.010283151 0.086264916 -0.023137912
-0.07606422 0.08401147 0.10048755 0.10341202 0.021762747 0.19977844 -0.015187111 -0.034532562
-0.051814165 0.020707633 0.14526252 -0.12634897 -0.03240037 -0.03710315 0.0011461027 -0.071273476
0.14349969 0.018481834 -0.13422067 -0.12633665 -0.05953713 0.105201855 0.15249129 -0.027527262
-0.12654105 0.16506585 0.13706829 -0.041585773 -0.011060399 0.029649647 0.120695375 0.11787441
0.060525585 -0.13661824 0.02912776 -0.08837462 -0.15156525 0.07909772 -0.00013701254 -0.048928563
0.015132306 -0.06524467 -0.090554334 0.028616311 0.22701913 0.11674195 -0.03790179 -0.094910294
-0.0855067 0.10324424 0.07186539 0.11133519 -0.05978366 0.060722593 0.026028207 -0.116072275
0.13737206 0.043651022 0.060998462 -0.13978693 -0.026153747 -0.16756842 0.13571434 0.06354263
-0.018337283 0.1353734 0.13165194 -0.16141847 0.042424425 0.07525968 0.15425812 0.09183088
-0.010590597 0.11968583 0.15984729 -0.057886545 0.1769792 0.073202185 0.08182706 0.14577962
0.04369699 -0.13524638 0.21432927 0.08735373 0.025618471 -0.057219688 -0.03099354 -0.018038189
-0.07796294 -0.06353043 0.20016767 -0.03325787 -0.037135884 0.045806024 0.010096766 -0.2008293
-0.037477262 0.03525774 0.028078727 -0.070926845 0.13347226 0.014523874 -0.13992144 0.122401014
0.025302943 -0.14669503 -0.12120194 -0.13524406 -0.016923876 0.026392844 0.08182046 -0.15402673
-0.1401335 0.09185635 -0.17262948 -0.074395806 0.14683042 -0.03532479 -0.0063521885 0.046048462
0.18271425 -0.13012896 -0.11824026 0.08864878 0.003523146 -0.13935907 0.06331391 -0.10423987
-0.029191125 0.10980442 -0.0067303125 -0.10117454 0.18924764 -0.1211563 -0.051459905 -0.09551744
0.1847363 -0.13495779 0.021198794 0.019426629 -0.099627785 0.042469345 0.10946077 -0.042417027
-0.009829207 0.1231399 0.12336551 0.010890394 -0.087759756 0.00501624 -0.055770956 0.203042
0.1480527 -0.15125258 -0.10889269 -0.053781208 -0.056921348 0.099112 0.04892558 0.01905146
-0.027277812 0.08483814 -0.08315031 -0.086638846 0.036894068 -0.083082296 -0.029411012 0.10541507
-0.1555537 0.0017994264 -0.15988128 -0.17629331 0.123287484 0.024904503 0.021925718 0.14914362
-0.17213273 -0.13883284 0.03291517 0.058548756 0.14914592 -0.030684521 -0.12236196 -0.20042348
-0.09285222 -0.067129426 0.19725406 0.034939885 0.08557334 -0.15602387 -0.035279408 -0.060711525
-0.016222414 -0.10127176 0.053884722 0.1433778 0.013875846 0.10215979 0.042610325 -0.11970063

waveform_dense.bias f4 [24]
00000000: 262a 63bd 206d d2bd b85d 353e 273d 41be
00000010: 10c6 07be 4308 33be 3c93 da3c 81aa 19bc
00000020: 07eb 1cbe 8e33 ffbd f199 a93b 54e7 0dbe
00000030: 679d 293e 740e f33d 4244 503d 1e13 e33d
00000040: 16ae 3d3c 7da1 20be 5953 1c3e a660 83bd
00000050: d793 ac3d f694 27be 39f2 c1bd 9dde 2f3c
-0.055460118 -0.1027472 0.17711532 -0.18870984 -0.13259149 -0.1748362 0.026681535 -0.00937903
-0.15324031 -0.12461005 0.005175822 -0.13857776 0.1656395 0.11867991 0.050846346 0.11087631
0.01157715 -0.15686603 0.1526617 -0.064149186 0.08426636 -0.16365418 -0.094700284 0.0107342275

waveform_bn.weight f4 [24]
00000000: 54e9 793f aee2 853f d213 743f 5461 7c3f
00000010: dfba 753f 4289 7f3f 6c09 833f 314e 753f
00000020: f5de 803f 1af8 6e3f ffef 823f a653 793f
00000030: e618 7a3f 124b 763f b8a3 7c3f adaf 6f3f
00000040: af02 763f 085d 803f 29f5 773f d8e5 7e3f
00000050: 5e7f 733f fc03 753f 4d84 7b3f 677b 803f
0.97621655 1.0459802 0.95342743 0.9858601 0.9598827 0.99818814 1.023725 0.95822436
1.0068041 0.9334732 1.0229491 0.9739326 0.9769424 0.962083 0.98687315 0.93627435
0.96097845 1.0028391 0.9685846 0.99569464 0.9511622 0.95709205 0.9824875 1.003766

waveform_bn.bias f4 [24]
00000000: d26a 29bc 7c54 593d 3037 41bd 1461 06bd
00000010: 9833 5abd cf4e 29bb 3d2d 093d 20a3 26bd
00000020: 7e33 573c 2b89 57bd 73ab d63b b715 01bd
00000030: f69a 38bc 69b0 2bbd b880 04bb caeb e2bc
00000040: eeb3 07bd a4c0 383b 10cc fdbc b93f bebc
00000050: abca 1ebd 23bc 6cbd 6414 fbbb 280c 723b
-0.010340409 0.053059086 -0.04717177 -0.032807425 -0.05327186 -0.0025834327 0.03349041 -0.040682912
0.013134835 -0.052621048 0.0065512 -0.03151485 -0.011267414 -0.041916285 -0.0020218324 -0.027700324
-0.03313058 0.0028190995 -0.030981094 -0.023223745 -0.038767498 -0.05779661 -0.007662343 0.0036933515

waveform_bn.running_mean f4 [24]
00000000: 63bf cbbc 9f35 95bd 47b5 3c3e ee78 23be
00000010: 46a7 cbbd a1fc 2dbe 5aac 473d 795e ca3b
00000020: a081 f5bd e82b 42be eb72 a73d f8b7 17be
00000030: 7b56 023e 643d fe3d f4a6 b63d 3710 ef3d
00000040: 9d24 06bd 1280 58be 3469 0c3e b559 9cbd
00000050: 6023 033e 8546 1fbe f24b 3ebe 88dd 703d
-0.024871534 -0.07285618 0.18428527 -0.159641 -0.09944014 -0.16990902 0.04874835 0.006175813
-0.11987615 -0.18962061 0.08176216 -0.14816272 0.12728302 0.12414053 0.089185625 0.116730146
-0.03274976 -0.21142605 0.13712007 -0.07634298 0.12806463 -0.15554245 -0.18583658 0.05880502

waveform_bn.running_var f4 [24]
00000000: 65b1 3c3b b24a 5e3b b825 333b 70d4 b73b
00000010: 017b 8d3b a99e 073c 3f89 863b 0b57 b83b
00000020: d225 a43b acf3 0e3b 1eea ba3b 455e 2f3c
00000030: 488f b53b 0dfa 2a3b 4fec ec3a 63ba 663b
00000040: 3d9a 3f3b 6409 173c 4ff5 963b d329 ce3b
00000050: a985 023c 23a2 fa3b 2ce7 963b f3ea ce3b
0.0028792259 0.0033919034 0.0027335715 0.0056100413 0.0043176417 0.008277574 0.0041057165 0.0056256107
0.0050093913 0.002181272 0.0057041785 0.010703628 0.005540762 0.0026088983 0.0018075797 0.003520631
0.002923622 0.0092185475 0.00460688 0.006291607 0.007966437 0.0076487227 0.0046051946 0.006314629

feature_dense.weight f4 [16, 8]
00000000: 65c1 3cbe 54e8 84be 0a3f 223e 4b28 3d3e
00000010: 39f1 c4bc 11f7 9abe 63b4 513e 8c83 83be
00000020: 9dff ab3e fb51 03be 76a0 883e ce1f 03be
00000030: 93c0 363d c24e 40bd a314 313e f702 bb3e
00000040: 7217 1ebd cda1 3c3e df05 d9bd 8908 3abe
00000050: 157e 223e 03d4 8d3e bdbf 9ebe 7d28 02be
00000060: 6e2e 45bc c6e3 37bd af18 bebd 261e d03d
00000070: e258 43be c6b7 c53c b180 c23e 494a 363e
00000080: b2e8 1ebd 6001 6e3e 9817 f73d 6c4e 5cbd
00000090: aacd 99be 0185 8e3e cd4b a2be 0f5d 8a3e
000000a0: 5a3e 203e 997a 813d d444 cc3d b167 443e
000000b0: 148e 413e 3aaa 8c3e acee 9dbd ec3d 8cbd
000000c0: 97fc bb3d f91d e93d f4af 2a3c 2a01 423e
000000d0: a059 183e eea5 53be 8e7d 113e 8be3 22be
000000e0: 3a31 e9be b0f5 9dbc 8e5a 4d3e f12c b73e
000000f0: 8f92 03be 1f81 86be 13fb 3dbe 81f1 8c3d
00000100: 1778 24be 8505 1a3e 4fc7 42be 83b3 3c3e
00000110: 859b 69be 2837 f5bd 5ae4 8c3e c320 98bd
00000120: 632c 8fba fbe8 a0be 426d afbe d6be 92be
00000130: ee6f 4a3e cdc7 ac3d 1d24 1ebe 0785 c93e
00000140: 151f be3d 640b 5cbe a3e2 4cbd 14a1 223e
00000150: af2f 3f3e e330 b73e a3ec 69be 86cc dbbd
00000160: a4f4 423d db67 65bd c135 483e 343c 653c
00000170: 2ac6 88be 5edc a5be 9f98 d73d bddd 803b
00000180: 22a6 363e fc30 273e 551a 4ebe ee1b df3c
00000190: 2557 1bbe d323 69bd 2f65 843e 6c8c 983e
000001a0: 9f06 f83d 5bfd 8f3e fa87 b13e 7c45 313e
000001b0: 489c 8a3e 985b 94be 8ca0 2a3e dfe9 5cbd
000001c0: 0974 00be 6ddd 9e3e fc5f 2ebe 49f4 16be
000001d0: a65c 9cbe b238 04be 693f f6bd 8a13 ae3e
000001e0: ab37 92be d350 9ebe 19de 433e 70d2 79be
000001f0: e9c2 ea3c bb09 7d3d da0f 9f3d 01ca df3d
-0.18433149 -0.25958502 0.1584436 0.18472402 -0.024040805 -0.30266622 0.20478968 -0.256863
0.33593455 -0.12824242 0.26684922 -0.12805101 0.044617247 -0.04695011 0.17293029 0.365257
-0.038596578 0.18421097 -0.10596823 -0.18167318 0.15868409 0.27700815 -0.3100566 -0.12710758
-0.0120349955 -0.044894956 -0.09282052 0.10162 -0.19076875 0.024135482 0.3798881 0.17801775
-0.038796134 0.23242712 0.12065047 -0.053785726 -0.30039722 0.2783585 -0.31698456 0.27024123
0.15648785 0.06322212 0.099740654 0.1918018 0.18901855 0.27473623 -0.07711539 -0.06847748
0.09179037 0.1138267 0.010417927 0.18945757 0.14877939 -0.20668766 0.14208052 -0.15907113
-0.4554537 -0.019282192 0.20054075 0.35776475 -0.12848876 -0.26270387 -0.18552808 0.06882001
-0.16061436 0.15041168 -0.19021343 0.18427853 -0.22813232 -0.11973411 0.27517968 -0.07428124
-0.0010923262 -0.3142775 -0.34263045 -0.2866122 0.1976926 0.084365465 -0.15443464 0.39359304
0.09283272 -0.2148872 -0.050020825 0.15881759 0.18670534 0.35779485 -0.22844176 -0.10732369
0.04759659 -0.056007247 0.19551755 0.013991404 -0.26713687 -0.3239469 0.10527157 0.0039326833
0.17836812 0.1632728 -0.20127232 0.027234998 -0.15169962 -0.05691893 0.25858447 0.29794633
0.12110638 0.28122982 0.34674054 0.17311662 0.27072358 -0.2897613 0.16662806 -0.053933974
-0.12544264 0.3102831 -0.17028803 -0.14741625 -0.30539435 -0.12912253 -0.12023813 0.33999282
-0.28558096 -0.3092104 0.19127692 -0.24396682 0.028657394 0.061776858 0.07766695 0.10927201

feature_dense.bias f4 [16]
00000000: 3b85 4ebe a3ae 0d3d 7bdb 1ebd a45d 2d3e
00000010: b330 5c3e 7ea2 703e 716b b3be 6278 fdbd
00000020: 09c0 12be 095a a43e c307 8abe e8f2 213c
00000030: d6b0 acbd d381 4d3e 7687 92bd c166 823e
-0.20168011 0.034590375 -0.03878353 0.16930252 0.21502952 0.23499486 -0.3504291 -0.12376477
-0.14331068 0.3209994 -0.26959047 0.0098845735 -0.08432166 0.20069055 -0.071547434 0.2546902

feature_bn.weight f4 [16]
00000000: 18fb 803f 78af 733f 3ec2 873f f1b3 803f
00000010: b614 813f 5207 7f3f e7fd 853f 6fb0 843f
00000020: e738 833f 4ff8 873f 2874 813f bbc0 793f
00000030: baac 893f 7acc 8c3f c862 873f 85c3 823f
1.0076628 0.9518962 1.0606153 1.0054914 1.0084445 0.99620545 1.046811 1.0366343
1.025174 1.0622653 1.0113573 0.9755971 1.0755837 1.0999901 1.0577021 1.0215918

feature_bn.bias f4 [16]
00000000: 0e1b a6bb 4e31 7fbd a136 903c e853 1b3d
00000010: c806 ab3c f5fb b23b a3cc 2a3d 09be bd3c
00000020: 4a32 f53c 3fe8 e63c 479d 9c3c 50d5 fd3b
00000030: c546 913d 1347 d23d e551 b93c 73ae ca3c
-0.005069143 -0.06230288 0.017604174 0.037921816 0.020877257 0.0054621645 0.041699063 0.023161905
0.029931206 0.028186915 0.019117964 0.007746376 0.07093576 0.102674626 0.022622058 0.024741387

feature_bn.running_mean f4 [16]
00000000: be05 88c0 d24f 7141 39b3 8141 0327 27c0
00000010: 572e 4fc2 5d1c 1542 4de5 b141 c8df 26c2
00000020: 5d5a adc1 b507 b241 3226 f141 271c 40c2
00000030: 6403 0cc1 eb27 1c42 cb70 6fc2 f4ca 3441
-4.250701 15.081987 16.212511 -2.611756 -51.795254 37.2777 22.236963 -41.718536
-21.669123 22.253763 30.14365 -48.027493 -8.750828 39.038982 -59.86015 11.299549

feature_bn.running_var f4 [16]
00000000: cee5 4a41 31cc ac42 bc30 df42 8008 4444
00000010: 042b e542 e8a8 7f42 dd16 a141 fec7 0e44
00000020: 1d29 7143 cc8c a542 c558 1d42 1715 b342
00000030: ae03 8443 e929 8d42 819d 3f43 9f50 7242
12.681105 86.39881 111.595184 784.1328 114.584015 63.914948 20.136164 571.1249
241.1606 82.774994 39.33669 89.54119 264.02875 70.581856 191.61525 60.57873

concat_dense.weight f4 [32, 40]
00000000: 697d f3bd c1fd bcbd b622 47bc 4392 f63d
00000010: 05d1 d3bc 7b7d 993d 3744 df3d d3fb e53b
00000020: 31f2 0abd edb0 643d f7c5 893d 59a3 10bd
00000030: 0215 a0bd e5a3 c33d cca2 2bbe 490c a0bd
00000040: 7947 363d 3210 f4bd 4d5f d4bd afad 033e
00000050: 380b f3bd e2b8 8b3d c659 25be 214c 6a3d
00000060: 2955 db3d c1c9 fe3d 68f5 b83d 34df 1e3e
00000070: f3cf 2f3e 1d49 423d 6754 153d 6cc8 80bd
00000080: 5101 803d 2ba2 b53d 0304 f5bd 116f 9abc
00000090: 991e 503d bbd9 30be aac6 463e 7547 84bd
000000a0: 26f3 9e3a d37f 463e 30a2 cd3c a6bb b0bd
000000b0: 590c 01be 213a 1cbe 0d87 cabc 3f38 b9bb
000000c0: 261a fdbc 1a32 46bc 7988 463e 712b 953d
000000d0: b656 c33d f6c7 1dbe f1c7 88bd ba0c d53c
000000e0: 3ec6 683c 3170 8dbc 949c 32be fab2 d03d
000000f0: 80b7 8c3d bc49 243d 854f ac3d 52dd 3bbc
00000100: 982e 96bc 6587 bb3c 51ee 55bc 945e e73c
00000110: 7c7d f7bd ebd0 d7bc f7f4 72bd 6cbf 24bd
00000120: c9bf f8bd b0e1 4c3d ecb5 7d3d 19d6 7f3d
00000130: f3dc 9c3d 23c7 01be 8f70 8bbd 2795 38bb
00000140: d1f3 c8bd 03e7 8abd 9ed6 3d3c 553e 1cbc
00000150: 0b22 f9bb db86 043d 51fe 57bd 194d cc3b
00000160: 5986 503b 07f2 bf3c 8333 29bd dc57 1ebe
00000170: 3654 b3bd 9767 fc3c 957d 6fbd d060 2c3d
00000180: 4d09 20be e8c7 ae3d bdce 9f3d 5147 b3bd
00000190: e30b be3d e3ba e9bb 72ba 8fbd c377 273d
000001a0: 83d8 02be 6713 cabd 82c3 803c 546d d93d
000001b0: 53f4 873b 897c 473c 72d8 ee3d ab70 a23b
000001c0: aa5e 00be e8ec 1e3c 4c88 593e e1fe 543d
000001d0: 44e6 13bd 83a6 053d 36af 00be d21b cebc
000001e0: 4e9a faba 341b 153e bd0a 1cbe 1942 1bbe
000001f0: 18b6 00be fd4f fabd 1e78 01be 62d2 0dbe
00000200: e01c c63b aa8f 153e bec4 afbd 28ac 8fbc
00000210: 68c9 c43c f4ed 683d 5efe 323e a0aa bcba
00000220: 436b 3dbb 1635 abbd fb2c 1d3d b1bc 1e3b
00000230: 4ec0 9d3d b99e 093e 80cc 2bbd 005b c63c
00000240: 34be 943d 7619 a03d 8adc 03bb 22ea 233d
00000250: ee2c b63d 620e 12be 047a 23be 870b 4fbd
00000260: db4b 1b3e cc93 003e b105 183d 68cf b73d
00000270: 2949 0c3d 70fc c0bd c5f9 ebbc 180d 833d
00000280: 8c44 a4bc d5bf d2bb 0643 88bd 46d4 e9bc
00000290: 4c9c 113e 4d82 113e e24f f7bd 6233 18bd
000002a0: fa87 053e 946e 05bd 5ea6 cdbc c91e e43d
000002b0: a274 863d d44e cc3d 1e37 07be 741b fa3d
000002c0: 42f0 47bd 3279 973d 6c54 193e bfec 79bd
000002d0: 575b 06be 5852 e4bb e989 773d c13f 9fbd
000002e0: 0d72 193d 0a28 edbd bc4c 813b 7d59 94bd
000002f0: 67aa 9ebd a76c 22be 26b8 8a3d 60a6 19bb
00000300: 851d e9bc e727 fabd 9e62 e43d 4acf 27bd
00000310: 1bbe 26be 40f0 a9bd c8fe 333e 69ff 35be
00000320: 7fcc 2c3d 4cd6 ebbc 48c1 c03d 6e25 1abd
00000330: 5e10 4e3c bea9 d63d 8f9e 223e 452a 53bd
00000340: 6a02 34be 6add 423c fbb9 1b3e 54c8 aebc
00000350: 533a ce3d 17e8 883d 36af 83bd 000e 8c3d
00000360: 9717 4a3d 46b2 83bc 2454 043e 05cb 6fbc
00000370: bb19 f93d 1f87 ddbc 4e7c 2d3d 3886 74bd
00000380: d60b a93c 2920 e33d b8e8 3dbe ea87 aabd
00000390: b87c 1e3e d7c0 69bd 73aa 91bd 10ce ad3c
000003a0: a896 d7bd a313 3fbe 155d d13c d361 433e
000003b0: 756a fabb 99f4 b8bb 51b7 2e3c d3e6 95bc
000003c0: 693a bd3d cd5a bd3d 1260 36bd d5bf ccbd
000003d0: 5ce1 01be c4f9 6b3d 7b9d 9cbd d948 c5bd
000003e0: 2bb1 dcbc 0ee1 1fbd 0315 fa3b d537 1dbe
000003f0: e338 903d 4e75 b53d c6b3 ed38 d31c df3d
-0.118891545 -0.09228087 -0.012154272 0.12039616 -0.025856504 0.074946366 0.10901683 0.007018545
-0.033922378 0.055832792 0.06727212 -0.03531203 -0.07816507 0.09552745 -0.16761321 -0.07814843
0.044501755 -0.119171515 -0.1036974 0.12859224 -0.11867374 0.06822373 -0.16147527 0.05720151
0.107096024 0.12440825 0.090311825 0.15514833 0.1716917 0.047433008 0.036457445 -0.062882274
0.06250251 0.08868822 -0.11963656 -0.018851789 0.05081043 -0.17270558 0.19411722 -0.06458942
0.0012126907 0.19384699 0.025101751 -0.08629541 -0.12602367 -0.1525655 -0.0247226 -0.005652457
-0.030896258 -0.012096906 0.19387998 0.072836764 0.09538023 -0.1540831 -0.06678761 0.026007045
0.014207421 -0.017265411 -0.17442542 0.10190387 0.06870937 0.04010938 0.08413605 -0.011466341
-0.018332765 0.02289171 -0.013057307 0.02824334 -0.12084481 -0.026344737 -0.059315648 -0.040221617
-0.12145955 0.05001992 0.061941072 0.06246004 0.0765933 -0.12673621 -0.06808578 -0.0028165074
-0.09812129 -0.06782343 0.011586813 -0.0095363455 -0.007602935 0.03235517 -0.05273277 0.0062347767
0.0031818359 0.023430837 -0.04130889 -0.15463203 -0.08756296 0.030811114 -0.058469374 0.042084515
-0.15628548 0.08534223 0.07803104 -0.08753837 0.09279611 -0.0071328743 -0.070179835 0.040885698
-0.12777905 -0.09866982 0.015718225 0.10616556 0.0041489988 0.012175688 0.116623774 0.0049572787
-0.12536111 0.009700038 0.212434 0.052000884 -0.03610827 0.0326295 -0.12566838 -0.02515975
-0.0019119473 0.14561158 -0.15238471 -0.15161933 -0.12569463 -0.12222288 -0.12643477 -0.13849786
0.0060459226 0.14605585 -0.085824475 -0.017538145 0.02402182 0.056867555 0.17479846 -0.0014394112
-0.0028903044 -0.08359735 0.038372975 0.0024221356 0.07702695 0.13439454 -0.041943073 0.024213314
0.07262841 0.07817356 -0.0020120465 0.04001821 0.088952884 -0.14263299 -0.15964514 -0.050548103
0.15165655 0.1255638 0.037114803 0.089751065 0.03424946 -0.09423149 -0.028805623 0.06398982
-0.020052217 -0.0064315596 -0.06653409 -0.028543603 0.14219779 0.14209862 -0.12075783 -0.037158377
0.13040152 -0.03257616 -0.025103744 0.11138684 0.06565215 0.09975973 -0.1320462 0.122122675
-0.048813112 0.07396163 0.1497361 -0.061016794 -0.13120781 -0.006967824 0.060434256 -0.07775832
0.037462283 -0.115799025 0.003945915 -0.07243631 -0.077473454 -0.1586176 0.06773405 -0.0023445114
-0.028456459 -0.12214642 0.11151622 -0.04096917 -0.16283457 -0.08297777 0.1757766 -0.17773212
0.04218721 -0.028788708 0.094118655 -0.037633352 0.012577144 0.104815945 0.15880798 -0.051553983
-0.17579046 0.01189361 0.15207665 -0.021335758 0.10069718 0.066848926 -0.06429903 0.06838608
0.049338903 -0.016076218 0.12922722 -0.014635806 0.12163111 -0.02704197 0.042354874 -0.059698313
0.020635527 0.110901184 -0.18545806 -0.08326705 0.15477264 -0.057068672 -0.07112589 0.021216422
-0.10526782 -0.18659835 0.02555708 0.19080286 -0.007642085 -0.0056443927 0.010663823 -0.018298542
0.092396565 0.092458345 -0.044525214 -0.099975266 -0.12683624 0.057611242 -0.076472245 -0.09633035
-0.026939949 -0.03903299 0.0076318993 -0.1535333 0.070421 0.08860265 0.00011334526 0.1089417

concat_dense.bias f4 [32]
00000000: c82c 233e 3e99 a4bc 312e f0bc 4d84 efbd
00000010: d87d 243d ca4e 1fbe c19a 8c3c 995a babd
00000020: 6d82 ad3d b0cd 09bd 5366 e23c 1354 ccbd
00000030: b262 ee3b 0e84 063e d2bc b63b 4409 233c
00000040: f354 eabd a601 21be 4397 9abd da70 0dbd
00000050: d67e f6bd 6619 cd3c 3080 eb3d 213b 07bc
00000060: 512b 4b3d 7c7a 22bb 3540 2a3d d12d 07be
00000070: c85e f93d 26eb eebc 45cd da3d 4bf4 c53d
0.15935051 -0.020092603 -0.0293189 -0.11695156 0.040159076 -0.155574 0.017163636 -0.090993114
0.08472142 -0.033643425 0.027636683 -0.099769734 0.007274949 0.13136312 0.0055767084 0.00995094
-0.11441984 -0.15723285 -0.07548382 -0.03453145 -0.12035911 0.025036525 0.11499059 -0.0082538435
0.049601857 -0.0024792245 0.04156514 -0.13201071 0.12176281 -0.029164862 0.10683683 0.09665736

concat_bn.weight f4 [32]
00000000: fbe9 6f3f 904e 663f ce5f 803f 08a6 713f
00000010: 986f 693f 11a5 683f 8143 6a3f 97c8 743f
00000020: 981a 6c3f ed9a 6e3f 8018 743f 02de 7a3f
00000030: 4461 7a3f b0c4 763f 0de5 6a3f d213 6b3f
00000040: ca57 7f3f d9bf 7d3f 7a23 753f 7485 793f
00000050: ea7f 6f3f a1c7 793f 2844 6f3f 17a1 733f
00000060: 8e6a 753f ccf7 703f 43ac 683f 8fd8 763f
00000070: 9c3b 783f be8c 693f 537b 6e3f a007 703f
0.937164 0.89963627 1.0029237 0.9439397 0.91185904 0.9087687 0.9150925 0.95618576
0.9222808 0.9320515 0.95349884 0.9799501 0.97804666 0.9639387 0.91755754 0.9182712
0.9974333 0.9912086 0.9575726 0.9746926 0.93554556 0.97570235 0.93463373 0.9516768
0.95865715 0.9412811 0.9088785 0.9642419 0.96965957 0.9123038 0.9315693 0.93761635

concat_bn.bias f4 [32]
00000000: f45e 63bd 9300 c1bd 3cc7 543c 96b6 36bd
00000010: a5d1 7ebd 938f 82bd c641 97bd ad58 1ebd
00000020: c9a4 5cbd c4b9 4dbd b6b9 13bd 877f 28bb
00000030: d0ab 2dbd 5ea1 80bc 9fe6 25bd f482 9dbd
00000040: 1d78 d73b c25e 88bb 6b26 10bd b781 513b
00000050: 14c2 d0bc 7c13 d4bc 2753 6ebd 369b 13bd
00000060: 5536 e6bc 285d 81bc ab07 96bd d894 38bc
00000070: 590c b9bb 3815 9cbd 580b 63bd cc47 19bd
-0.055510476 -0.09423938 0.012986954 -0.04460772 -0.06221165 -0.06375041 -0.07385592 -0.038658787
-0.05386809 -0.050225988 -0.03606578 -0.0025710778 -0.04240018 -0.015701946 -0.04050314 -0.07690993
0.006575598 -0.0041616866 -0.03519289 0.0031968185 -0.025483169 -0.025888197 -0.05818477 -0.036036693
-0.02810208 -0.01579149 -0.07325681 -0.011265956 -0.005647224 -0.07621235 -0.05543074 -0.037421986

concat_bn.running_mean f4 [32]
00000000: e2bb 943e 7b18 ffbd 5ccb 46be 9b56 88bd
00000010: 67b6 1bbe 0fdd 2dbd a0ca bbbd dbf3 0ebf
00000020: 3e22 293e ed41 023e a398 8d3e 1d10 99bd
00000030: 86a7 b63d ea2e 493e 8126 35be 64dd f63e
00000040: 4774 36be aeb5 9fbb cd71 6ebe 48e7 e33e
00000050: 5c8a 323c e807 2b3e 1981 973d 78e9 c53e
00000060: eece a2bc de5b debe ac99 5f3e 1efb f6be
00000070: 8a91 99be c8c2 363e d0a1 413e 144f 0b3f
0.29049593 -0.12455841 -0.19413513 -0.06657144 -0.152063 -0.042447146 -0.09169507 -0.55840844
0.16516969 0.12720461 0.27655515 -0.074737765 0.08918671 0.19646803 -0.1769047 0.48215783
-0.17817794 -0.004873953 -0.23285599 0.4451239 0.010897245 0.16702235 0.0739767 0.38654685
-0.019874062 -0.43429464 0.21835965 -0.48238462 -0.2999385 0.1784774 0.18909383 0.5441754

concat_bn.running_var f4 [32]
00000000: 887e 893e d4e3 7a3e 7716 833e 19c6 5a3e
00000010: ec4a a93e 9a43 613e f1c3 ae3e 3b77 563e
00000020: ee21 8c3e 5764 653e 2863 6c3e 3a97 c33e
00000030: e3f5 8e3e 8393 f43e 9572 b23e 1eb1 5c3e
00000040: 3752 0a3f 7d2c d03e b733 553e 07f1 f23e
00000050: 287d 1a3e 494e 3e3e 1f16 773e c6ce 7b3e
00000060: 4470 dc3e 5ce7 da3e c573 103e d70b 1b3e
00000070: fefc a93e 6698 933e 1398 1b3e 39a2 773e
0.26854348 0.24500972 0.25603077 0.21364631 0.33064973 0.21998444 0.34133866 0.2094392
0.27369636 0.22401558 0.230847 0.38201314 0.27921972 0.47768793 0.34853044 0.2155194
0.540317 0.40658942 0.20820509 0.47449514 0.15086806 0.18584551 0.24129532 0.24590597
0.43054402 0.42754638 0.14106663 0.15141235 0.3320083 0.28827208 0.1519473 0.24182977

output_dense.weight f4 [5, 32]
00000000: 955c a7bb 9832 0ebd 3dd4 883d b509 b7bd
00000010: 8643 8c3c 5f06 c1bb 66d5 483c 4efb 31bd
00000020: 5e2d b73c 3032 17be 18ff a23d dd16 523c
00000030: 4d03 0dbd b30c e83d cf22 bfbb 8c1e dd3d
00000040: f003 31be d2c5 ca3d 8887 bf3d 8e69 08be
00000050: d317 1a3c ac59 173d 432e e2bd bf02 9abd
00000060: a913 a93d fe48 93bd 2b1a 093d 40c4 903d
00000070: 4ca8 24bd 3fb6 a83d a9a8 0a3c d36a 3bbd
00000080: edd6 9b3d 0cec b6bd a982 9c3c 47a8 ffbc
00000090: a9a8 de3c d06e 123e b008 95bd d690 793c
000000a0: f41a ba3c 20f2 a9bc cabc 37bc d6dd 703d
000000b0: c098 10be 8ef4 123d 8460 96bd 5980 ccbd
000000c0: f001 cfbd 5af9 303e 1d43 323d f356 eabd
000000d0: f885 8c3d fc85 76bb afb0 3cbc dd8d 1d3d
000000e0: 9fac ec3d 4825 ebbd 5788 bb3d b2db 263d
000000f0: c628 343d dca3 b2bd b1e8 65bb 680e ed3d
00000100: 1ca3 093e 2512 9b3d 1582 943d 4f67 9ebd
00000110: aef9 073e 27e9 8cbd cd2c abbd b0d9 a7bd
00000120: bc48 94bd 618e 97bd 898b 2dbc 15ec 43bd
00000130: cf35 3bbe 4636 793d b7fa c03d 3de8 3ebc
00000140: 7853 c6bb fbc3 5f3d 3aab e83d dcda 253e
00000150: f283 0e3d 704a 83bd 000b 61bd b1e9 f13d
00000160: b9cf c43d c441 b6bd 338b 95bd e3f8 c13c
00000170: 9cfa 743d c354 3f3d 091f 7b3c 4d2d ffbc
00000180: 2789 a9bd 941f d5bd cd30 973d 8786 1dbd
00000190: cee5 563d a351 5ebd e7e3 90bd 7d63 933d
000001a0: 8592 66bd 3984 05bd 1f33 80bd fd5a 93bd
000001b0: 0813 073d da02 a3bd ca06 6d3d 807c 903d
000001c0: ca31 c1bd 9e38 543b 4556 ae3d 6a09 103e
000001d0: d80e 813d 5042 7f3d aa63 6abc 6ae9 903d
000001e0: 69ce ad3d 8be7 e33c bc72 763d bd34 0e3e
000001f0: 24ee d63d 1a79 d43c 3681 a23d 36dd 003e
00000200: 59ea 3cbd ea00 6cbd ef0c 353e 6f7b 14be
00000210: 79d3 93bd 82eb a43d 9604 1d3d c904 eabd
00000220: 341e 8e3d 7317 48bd 8467 bebc 9e19 14bd
00000230: 798b c3bd a247 cfbd 508c 09be 58a5 e4bb
00000240: 4463 1d3e fc1c 45bd 2116 103e 93b8 153e
00000250: 1c99 f33d d807 bfbc 542b c83b 96ac 823d
00000260: 45fa 01bd c36a 923d c1b6 b0bd a7e6 883d
00000270: b699 f2bd 1e77 d1bd c3ab 253c bd54 87bc
-0.005107472 -0.03471622 0.06681106 -0.08937398 0.017122041 -0.005890652 0.012257909 -0.043452553
0.0223605 -0.14765239 0.079588115 0.012822834 -0.034426976 0.11330547 -0.005833007 0.10796842
-0.17286658 0.099010125 0.093520224 -0.13321516 0.009405094 0.036950752 -0.1104398 -0.07520055
0.08255703 -0.071916565 0.03347222 0.07068682 -0.040199563 0.08237886 0.008463063 -0.045756172
0.07609353 -0.08931741 0.019105272 -0.03120817 0.027180033 0.14300084 -0.07277048 0.0152322855
0.02271793 -0.020745337 -0.011214444 0.05880531 -0.1412077 0.035877757 -0.07342628 -0.09985418
-0.101077914 0.1728262 0.043521035 -0.114423655 0.0686149 -0.0037616482 -0.011516734 0.03846537
0.11556362 -0.1148172 0.09156864 0.04073686 0.043984197 -0.0872266 -0.0035081322 0.115750134
0.13441128 0.0757182 0.07251374 -0.07734548 0.13278839 -0.06880408 -0.083581544 -0.081958175
-0.072404355 -0.074002035 -0.01059235 -0.047832567 -0.18282245 0.060842775 0.0942282 -0.01165205
-0.0060524307 0.05463026 0.11360784 0.1619677 0.0347938 -0.06410682 -0.05494213 0.11812151
0.096099325 -0.088992625 -0.07301941 0.023678249 0.059809312 0.046711694 0.015327224 -0.03114953
-0.08278113 -0.10406414 0.07382355 -0.038458373 0.052465253 -0.054277074 -0.07074719 0.0719671
-0.056292076 -0.0325968 -0.062597506 -0.07195089 0.032977134 -0.07959528 0.057867803 0.070549965
-0.09433325 0.003238238 0.08512548 0.14066091 0.06301659 0.0623191 -0.014305988 0.0707577
0.08486635 0.02782037 0.060168013 0.13887306 0.104946405 0.025936652 0.07934801 0.12584385
-0.04612193 -0.05761806 0.17680715 -0.14500211 -0.072180696 0.08052732 0.03833445 -0.11426694
0.069393545 -0.048850488 -0.02324272 -0.036157243 -0.09548087 -0.10121085 -0.13432431 -0.0069777183
0.15369898 -0.048123345 0.14070942 0.1462119 0.11894438 -0.02331917 0.0061086807 0.063805744
-0.031732816 0.071492694 -0.086286075 0.066846184 -0.11845724 -0.10227798 0.010111752 -0.016519899

output_dense.bias f4 [5]
00000000: 497b e13d 218b 17bd c456 04bd f523 19be
00000010: 43b0 c93d
0.11009843 -0.036997918 -0.03230931 -0.14955123 0.098480724
