pytorch_plrnn_best_model.pth (torch, 137361 bytes, 54 tensors)

conv_layers.0.0.weight f4 [32, 12, 3]
00000000: 17ba 023e 98a4 0d3e 759a 16bd 8219 203e
00000010: ea76 15bd be05 2e3d e88f a3bd 9d5d c93d
00000020: 3069 1c3e afb2 fcbd 1e1d 153e 13e3 cc3c
00000030: 0a0c 003e 17ee b93c c580 b73d 3930 d0bc
00000040: 6357 023e 2978 9b3c 2398 b9bd 0a5c 143d
00000050: 509f a6bd 174b bcbc b7b3 8bbd e077 df3d
00000060: fcb8 07be b29c 91bd 45aa 10bd f03c cbbd
00000070: c7e3 a03c 6ac8 1abe f743 163e 5f73 10be
00000080: 950c 0e3e 6bdc 973c 1c07 64bd 5011 dd3d
00000090: 0940 ae3c 7af8 053e 0807 873c cabf 5dbd
000000a0: e1c1 3b3d a316 2cbd cfc4 8b3d 7875 193e
000000b0: d91e c83d 837a 8bbd 48aa cb3d dd60 db3c
000000c0: 53e6 a93d 1014 cfbd 7e8a 28be b065 8dbd
000000d0: f8a5 03be 236c 063e 7daa 5d3d 96ff 9e3d
000000e0: 653b 5b3d 344b ab3b bae4 063e b6c1 f7bd
000000f0: 2afa b13c 600b debd 1c10 7a3d d173 45bd
00000100: 45f2 783d 309b f3bc 9240 143e b402 b9bd
00000110: ae4e cabd 67c0 d4bd 4fde 1b3e d95a 773d
00000120: 99dc 273e 9e99 0dbe db30 29be 696b f8bd
00000130: 7f1f cebd 0c36 8d3d 6301 953d 3ecc 183e
00000140: bc57 adbd c0b3 f9bd 898e a23d 5932 8ebd
00000150: 1e99 e53d f7f7 ecbc e5dd ca3d efa0 10be
00000160: 35fc b9bd 14c0 553d 7973 e33c 479c 51bd
00000170: 02e0 b83d 031d e03d 1f78 02be 7e9d bfbd
00000180: 62dc 1d3e 21ae 7bbd f411 88bd ceac 21be
00000190: 788c c7bd 8ff1 1b3d 6a44 2fbc 29a2 e1bd
000001a0: 0be2 9c3b a4b0 d2bd 80c5 05be 1123 bbbd
000001b0: c6ec 19be 655e eebd 8bef 213e ee62 db3c
000001c0: f160 3c3d cdae 20be dc73 e3bd 153d 64bd
000001d0: 6ad4 e33c 4c10 12be 880f 87bd 1286 bdbd
000001e0: 2374 76bb 36bc 80bd da65 59bc 0b27 e9bd
000001f0: 2d4f f7bd dea4 d8bd 746b 41bd 43a6 02be
00000200: dca7 0e3e 0a95 c3bc 8624 123e bf9f 373d
00000210: 3e49 0dbe 7989 e03d 0e26 5ebd e7af 87bd
00000220: 97e5 16be 1a5a 33be 4c69 2c3d e0da 36bd
00000230: 8bef 753d 706f 0fbe db5b fb3d 895d fdbd
00000240: 2c9d d2bc 7a55 283d a4fb b03d e8f8 0e3e
00000250: 8ca1 233e fe69 febd 0880 403d 043a 8cbd
00000260: 4a74 58bc bf6c 03be 967b 133e d220 03be
00000270: f8da c03d 06e0 883d 2c45 773d 7675 c1bd
00000280: 62f0 1b3e 5179 fc3c 8041 913c 29ed 1fbe
00000290: 8532 823d bc94 a6bc 2dbd 95bd 1806 093e
000002a0: df91 163d faea b8bd 34a0 b7bd 1e44 86bb
000002b0: 3a09 ce3d fcba 36bd 18c2 b6bd 9139 4bbd
000002c0: 7bc4 f0bd 844e 843d 6685 0a3e d331 1abe
000002d0: 57d8 0d3d d609 a53d 6bcd 003d 3293 77bd
000002e0: 382a b53d c04d b93d c1fb 7c3d cf57 e4bc
000002f0: f75b 2dbd 6791 8d3c 1213 c1bc e9b6 57bd
00000300: 0d2c d23d cba7 123e 94b5 5ebc e318 17bd
00000310: 0305 2639 4cc4 26bc dcb6 523d 8cf6 683d
00000320: 4fd2 17be e579 71bd 5f1e 0b3e de63 7e3d
00000330: 3b60 e8bb 0d0c d6bd 516b dbbd 9b4e 1bbe
00000340: bb90 77bd ba04 533d e20c d83d 00e8 8b3d
00000350: 0956 19be 352b d3bd 4f5b debc 4b89 243e
00000360: 4add 763c a768 4dbd 6d1d 833d 760c 92bd
00000370: 9d54 ecbd 7337 ef3d 0409 9abd 323d 08bd
00000380: 4e8d 2bbe 2fff f73d 2361 083e a316 883d
00000390: 6bd7 f7bd 2d0f 34be 022b 12be 797e f53d
000003a0: bbbb 9c3d 2aaf 0b3e e2d2 ba3d b7c7 453d
000003b0: 2ee7 603b 7980 03be 4bee 0dbe 33b8 15be
000003c0: 7fe9 6d3d d543 a3bd 7022 bfbc 8504 d0bd
000003d0: 47f0 abbc c3b0 dabd 8f0f e3bd 3b16 863d
000003e0: f86e 26bd 0e8c cb3d c9b1 50bd 9102 f5bd
000003f0: e1e8 f2bc 2dbb a4bd 76ab 6cbd d119 23be
0.127663 0.13832319 -0.036768395 0.1563473 -0.03649036 0.042485945 -0.07986432 0.098323084
0.15274501 -0.12338769 0.14561889 0.025010621 0.12504593 0.022696538 0.08960108 -0.02541362
0.12728648 0.018978195 -0.09062221 0.036220588 -0.08135855 -0.022985024 -0.06821387 0.10911536
-0.1325416 -0.071099654 -0.03531863 -0.09923732 0.019639863 -0.15115514 0.14674364 -0.1410651
0.13871987 0.01853772 -0.055670843 0.10794318 0.021270769 0.13083068 0.016482845 -0.054137982
0.045839194 -0.042013776 0.06824648 0.14986217 0.09771509 -0.06810477 0.09944588 0.026779586
0.08295884 -0.101112485 -0.1645908 -0.06904161 -0.12856281 0.13127188 0.05411767 0.07763593
0.05352344 0.005227471 0.1317319 -0.12097494 0.021725733 -0.10842013 0.06105052 -0.048206154
0.06077792 -0.029737085 0.14477757 -0.09033719 -0.09878288 -0.1038826 0.15221523 0.060389373
0.16392745 -0.13828132 -0.16522543 -0.12129862 -0.10064601 0.06895074 0.07275655 0.14921662
-0.08464 -0.12192488 0.07937343 -0.06943197 0.112108454 -0.028926833 0.09905604 -0.14123891
-0.09081308 0.052185133 0.027765023 -0.05117443 0.09027101 0.109430335 -0.12741135 -0.09356211
0.154161 -0.06144536 -0.06644049 -0.15788576 -0.09743589 0.038072165 -0.0106974635 -0.11017258
0.0047876886 -0.10287598 -0.13063622 -0.09137548 -0.15031728 -0.11639098 0.15814035 0.026780572
0.045990888 -0.15691681 -0.11106083 -0.055722315 0.027811248 -0.1426403 -0.06594759 -0.092540875
-0.0037605844 -0.062858984 -0.013268912 -0.113844 -0.120756485 -0.10578321 -0.047221616 -0.12758736
0.13931221 -0.023874778 0.14271745 0.04483008 -0.13797471 0.10963721 -0.05423551 -0.066253476
-0.14736019 -0.1751484 0.042092606 -0.04464233 0.0600429 -0.14007354 0.122733794 -0.12371356
-0.025709711 0.04109714 0.08641747 0.13962138 0.15979594 -0.1242256 0.0469971 -0.06847003
-0.013211319 -0.12834452 0.14402613 -0.12805489 0.09416765 0.06683354 0.0603687 -0.09446232
0.15228418 0.030819567 0.017731428 -0.15617813 0.06357292 -0.020334594 -0.07311473 0.13381231
0.036760207 -0.09029193 -0.08966103 -0.0040974757 0.100603536 -0.044611916 -0.08923739 -0.049615446
-0.11756226 0.06460288 0.1352745 -0.15058069 0.034630146 0.08058517 0.0314459 -0.06044311
0.08845943 0.09048033 0.06176353 -0.027873902 -0.042324033 0.017281247 -0.023568664 -0.05266467
0.10262308 0.1432182 -0.013593096 -0.03688897 0.0001583286 -0.010178637 0.05144392 0.05687575
-0.1482632 -0.05895414 0.13585804 0.06210696 -0.0070915497 -0.10451517 -0.10713828 -0.15166704
-0.06044076 0.05151818 0.10549332 0.0683136 -0.14974226 -0.103109755 -0.027143149 0.16067998
0.015067408 -0.050148632 0.06402097 -0.07131283 -0.11539576 0.11680498 -0.07521251 -0.033261485
-0.16753122 0.12109219 0.13318305 0.066449426 -0.121016346 -0.17583914 -0.14274219 0.11987013
0.07652994 0.13641039 0.09122254 0.048286166 0.0034317481 -0.12841977 -0.13860433 -0.14621048
0.058084007 -0.07971922 -0.02333185 -0.10157112 -0.020988597 -0.10678246 -0.11086952 0.06547209
-0.04063317 0.09938823 -0.0509508 -0.1196338 -0.029652061 -0.080435134 -0.057780705 -0.15927817

conv_layers.0.0.bias f4 [32]
00000000: 79e6 403d c09d 183d 101d d5bd 0379 e33c
00000010: 8d5b 203e bb0a e43d a9ec 01be c90b 1c3e
00000020: ba58 9d3b 170f b03d 6f82 0a3e 6e04 113e
00000030: 53c6 fcbd 0c52 1d3e 904c e8bd 720d dd3b
00000040: 53aa e5bd 4c5c 25bd cdf7 99bc c4cb d4bc
00000050: 4b92 a2bc 6ce0 403c 2ad5 2e3e 6dcf ca3d
00000060: c855 cb3d 763d 913d 29b6 003e ebc1 f2bb
00000070: 8d91 0d3c acb4 323d 84f2 18be 38a9 08be
0.047094796 0.037259817 -0.10405934 0.027767664 0.15659924 0.11134859 -0.12687935 0.1523887
0.004801837 0.08596628 0.13526319 0.14161846 -0.12342515 0.1536333 -0.11342728 0.0067459876
-0.112141274 -0.040371224 -0.018794918 -0.02597607 -0.019845149 0.011772256 0.17073503 0.099028446
0.09928471 0.07091801 0.12569489 -0.0074083707 0.008640659 0.043629333 -0.14936262 -0.13345802

conv_layers.0.2.weight f4 [32]
00000000: 6c59 7e3f 011a 7f3f bba5 803f 4cdd 7f3f
00000010: 7eb4 803f 79a3 803f a433 803f 7c50 803f
00000020: edd4 803f d6dd 7f3f ed52 7e3f 437e 7f3f
00000030: 8479 7f3f 5937 7e3f 34d3 7e3f 40ac 7f3f
00000040: fa04 803f 6949 7f3f e697 7f3f 7b47 803f
00000050: 9a18 803f e5b0 803f db9f 803f 192a 7f3f
00000060: f015 7f3f 2a89 813f 30de 803f 3bba 7c3f
00000070: 6714 7f3f d7f1 803f 9905 813f 0037 7e3f
0.99355197 0.99649054 1.0050577 0.9994705 1.0055082 1.0049888 1.001576 1.0024562
1.006498 0.9994787 0.99345285 0.99802035 0.99794793 0.99303204 0.9954102 0.9987221
1.0001519 0.9972139 0.99841154 1.0021814 1.0007508 1.0053984 1.0048784 0.9967361
0.9964285 1.0119984 1.0067806 0.98721665 0.99640507 1.0073804 1.0079833 0.99302673

conv_layers.0.2.bias f4 [32]
00000000: d8d3 3c3b e9c2 3d3b 1097 39ba e966 15bc
00000010: e82a fabb cedc 16bb 8a4b 10bc a278 f83b
00000020: f8a0 d93b 3c80 a73b 871f 3e3b 4b9f c03b
00000030: 568d 493a f6af 26bc 2789 8fbb c9fd ac3b
00000040: fcc5 483a 567e c93a c998 fcba f123 c23b
00000050: a049 413a 17a9 d43a bca2 18bc f44e d137
00000060: bc93 e73b e621 b73a 6c17 e63b f3fe c23b
00000070: c0b4 9ebb 5e71 243c 4014 e33a 89c8 a83b
0.0028812792 0.0028955287 -0.00070797 -0.009118774 -0.0076345094 -0.0023019793 -0.008807072 0.00758274
0.0066415034 0.0051117223 0.002901049 0.005878364 0.0007688602 -0.010173788 -0.0043803635 0.005279277
0.00076588965 0.0015372734 -0.0019271608 0.0059246947 0.00073733367 0.0016224709 -0.009316143 2.4951507e-05
0.007067172 0.0013971895 0.007021835 0.0059508025 -0.0048433244 0.0100367945 0.001732476 0.005150859

conv_layers.0.2.running_mean f4 [32]
00000000: febf 2f3e 6540 d23d e228 183e b7cf 133e
00000010: 0735 683e e788 2a3e e477 723e a202 993e
00000020: 6e2e 0e3e 0dd0 2e3e 9db8 813e f924 553e
00000030: 363a 953d db02 683e 3a35 a43d b000 5b3e
00000040: e383 ab3d 67ff 053e 42f4 863d 7c7d e63d
00000050: e18f ea3d c100 dc3d 7dc9 6b3e 3d46 2a3e
00000060: ea3e 263e 06a7 4b3e a023 743e afc5 213e
00000070: c0b1 4b3e 014a 6d3e 7ae4 963d c469 8f3d
0.17163083 0.102661885 0.14859346 0.14434706 0.22676478 0.16653787 0.23678547 0.2988482
0.13884899 0.17071553 0.2533616 0.20814885 0.072864935 0.2265734 0.08017965 0.21386981
0.08374765 0.1308571 0.06589557 0.11254403 0.11453224 0.10742331 0.2302608 0.16628356
0.16234937 0.19887933 0.23841715 0.15798067 0.19892025 0.23172761 0.07367797 0.07002595

conv_layers.0.2.running_var f4 [32]
00000000: c695 743e 8224 c63d 555d 213e f9cd f03d
00000010: 253c 833e d9c1 1d3e fe96 a03e 8548 403e
00000020: 1acb 0e3e d185 1c3e f654 1b3e d0d9 943e
00000030: c1c0 d23d 05b0 373e bd0d f43d d459 4c3e
00000040: 168d 123e b099 713e c2d7 bc3d 4c3e 073e
00000050: 2fce f33d 4811 263e 65fd 0e3e c974 103e
00000060: 96f2 f53d 62d9 893e 3fa3 8e3e 077f 0b3e
00000070: 458f 2b3e 2d51 273e 848a d63d 260f ec3d
0.23885259 0.09674932 0.1575826 0.11758036 0.25631824 0.15405978 0.31365198 0.18777664
0.13944665 0.15285422 0.15169129 0.29072428 0.10290671 0.1793824 0.11916683 0.19956142
0.14311633 0.23593783 0.0922084 0.13207358 0.11904561 0.1621753 0.1396385 0.1410705
0.1200916 0.26923662 0.27858922 0.13622676 0.16753872 0.1633956 0.104756385 0.11526327

conv_layers.1.0.weight f4 [32, 12, 5]
00000000: eba9 c93b f7bd 44bd b32d 4cbc 3895 06bd
00000010: dffd ad3c d964 983d 1e50 62bd 75c7 ba3d
00000020: cd16 bf3d 4067 c2bd 7015 d3bd 6cb3 f0bd
00000030: 0d8f 9cbd d493 53bd 7a60 a2ba 5bb4 a6bc
00000040: 8f7d 70bd 707b e7bc 5dbf 28bd 977e fa3d
00000050: fa75 69bd aa2f d8bd 9115 393d 82ab 36bc
00000060: 9462 d23d d19d 9c3d 2633 033e 9758 c9bd
00000070: 84b7 a63d 7c7a db3d 2ad7 55bd 5738 fd3d
00000080: 0800 d13d 1b0f cb3b 01ca 6d3d d3b7 2cbd
00000090: 42ae d8bd abb7 183d d12a 203d a200 b5bd
000000a0: 0279 833d 302a ddbd e23d da3d 6ba3 0a3e
000000b0: 6ec5 033d 3172 aabd ed55 703d c63b 833c
000000c0: 42c5 1d3d c1d9 2f3d df77 c53d 965f 83bd
000000d0: a794 2abd dfc6 d13c 641d e53b 63f5 c63d
000000e0: a123 a2bd 6a5c 82bc 8b78 703c 736d 15bd
000000f0: 67f1 b13d d454 523c d229 f1bd 6a74 a6bc
00000100: 3c71 88bd b4d7 543c 0db2 a1bc 0afd 09be
00000110: 4825 09bd 6ae5 a2bc a57f fdbc 053c 033e
00000120: 66f7 ccbc 631a af3d 1885 033d c6a9 ddbd
00000130: 0e7a 073d cd57 e03d 86a2 99bd 44bd 96bd
00000140: 1f86 0a3e a7d3 cd3d ff22 94bd 587d 923d
00000150: a3df 8dbc 8eee 05be 5567 b53b 45e2 163d
00000160: 4b11 34bd 568a 173d 6547 e7bd 8035 b43d
00000170: a7d4 d93d d728 983d 8945 fa3c b5ba 013d
00000180: 49cd d7bd b952 17bd c18f 1ebc bd62 85bd
00000190: ee44 ddbd 44d6 ac3d db98 b83d 8ed3 eebd
000001a0: 5a2a 423d 6282 443d 3072 ec3d 1601 a63d
000001b0: c577 f23d e344 12bd 016c b03d ddb2 cb3d
000001c0: 2bbe f9bd 911f dcbd ccdb dc3c e8c0 8f3d
000001d0: 51b2 91bd d4a6 cf3b c999 00bc a85f e13c
000001e0: aace 7dbd bc64 973d f544 b03d b4d8 cabd
000001f0: 9cff 1b3a eca8 82ba e513 153d 9587 f13d
00000200: a462 093d 5a60 f9bc 3227 df3d 95f8 69bd
00000210: 4294 39bd 9419 053c 97f4 c3bd fda8 4d3c
00000220: 8270 adbd 94f3 723c a984 943c 2e63 8d3c
00000230: 8a33 e3bd c8a0 03be b86d 643d 6d0a da3d
00000240: c315 edbd 212f 5d3d 7353 bdbd 73b7 0a3c
00000250: f45f e03d 0fd4 c63d ca66 cbbd af00 a03d
00000260: 656c 913d bb56 083c 0054 073e ca1f 4bbd
00000270: 5536 d3bc 8785 73bd 2c3b ab3c babc 0f3d
00000280: 8b08 543c 1832 97bd b9ea 57bd 6015 3e3d
00000290: c975 e5bd baa1 3bbc 4752 72bb 3bb6 39bd
000002a0: b07d 4c3d f8c8 d63b 926b cc3d 7deb 61bc
000002b0: 7e8a a8bd d754 ba3d 9d10 5e3c d91f 1abd
000002c0: 5261 bebd 11d2 c93c d11d ffbd e83b 063d
000002d0: f83a 8f3d 31b6 eebd 3023 c1bd 91dc babd
000002e0: 1346 e73d 2e89 f23d 6016 003c 973d f33d
000002f0: 480b 28bd befc f1bd d715 573d 3184 593d
00000300: 3e82 083e f9b0 5bba 7e54 dd3d 443b 953d
00000310: e268 c53d fe39 f8bd 3e75 d43d d7bd eebd
00000320: 01ea 023e 208c 5039 07ae dbbd 7b5d 173d
00000330: 3190 83bc 6d68 e3bd 9c1e 51bd 5b3e a43b
00000340: 5dda cd3d 7148 29bd 786a 973d 5194 453c
00000350: c858 813c 6703 003d 7933 b8bd 1dc6 d8bd
00000360: 815f 32bd d62e ebbd 0fab 3abd ca6f 263a
00000370: f1d2 a9bd b6ee 61bd 20e9 59bc c503 16bb
00000380: ba7e 8dbd 5771 283c 7b33 a8bc 63f5 203d
00000390: 2b43 663c 2815 6fbd 4c61 13bd d65f 3dba
000003a0: 4aa4 a3bd 7bba 843c 2257 ed3a 047e 5d3d
000003b0: e4cc e23c 286d bb3d 15b5 a7bb 8ee4 afbd
000003c0: ca39 6d3d ab22 b9bd 002d 94bc a193 09bd
000003d0: b457 41bd 1044 4abd 5b12 f83d ada4 973d
000003e0: 72da 133d 9acc f63d ad21 f2bd e0aa a33c
000003f0: 9605 ad3d c01d a53d d23b debd 5036 2c3d
0.006154289 -0.048032727 -0.012462067 -0.03285715 0.02123922 0.0744111 -0.055252187 0.09120075
0.09330521 -0.094923496 -0.10306823 -0.11752972 -0.07644472 -0.05165465 -0.0012388371 -0.020349672
-0.058713492 -0.028257102 -0.041198123 0.12231176 -0.056997277 -0.10555966 0.045186583 -0.011149289
0.102727085 0.076472886 0.1281248 -0.0983135 0.081404716 0.107167214 -0.05220715 0.123642616
0.10205084 0.006196869 0.058053974 -0.042167496 -0.10580112 0.037284534 0.039103333 -0.08838011
0.06419565 -0.10799062 0.106563345 0.13538902 0.032170705 -0.083225615 0.058675695 0.016019713
0.038518198 0.042932276 0.09642004 -0.06414716 -0.041645672 0.025607524 0.006992029 0.097147726
-0.07916952 -0.015913207 0.014677177 -0.036481332 0.08688622 0.012837607 -0.11775555 -0.020319182
-0.06662223 0.012990881 -0.019738222 -0.13475433 -0.03348282 -0.019884784 -0.030944655 0.12815864
-0.025020313 0.08549955 0.03210935 -0.10823397 0.033075385 0.10954247 -0.07501702 -0.07360318
0.13527726 0.10050135 -0.072332375 0.07152814 -0.017318552 -0.13079283 0.005536 0.03683688
-0.043961804 0.03699716 -0.11292914 0.08799267 0.10636263 0.074296646 0.030550735 0.0316722
-0.10537202 -0.036944125 -0.009677828 -0.065129735 -0.10804163 0.084393054 0.0901353 -0.116614446
0.04740367 0.047975905 0.11545217 0.08105676 0.118392505 -0.035710227 0.0861435 0.09946225
-0.12194475 -0.10748208 0.026960276 0.07019216 -0.07114089 0.006337026 -0.007849165 0.027511433
-0.06196467 0.073922604 0.086069025 -0.09904614 0.00059508695 -0.0009968556 0.036395926 0.11793438
0.033541337 -0.030441452 0.10896148 -0.057121832 -0.045307405 0.008123774 -0.09568136 0.012552497
-0.08468725 0.014828581 0.018129664 0.017259207 -0.11093815 -0.12854302 0.0557687 0.1064652
-0.11576416 0.054000024 -0.09244432 0.008466589 0.109558016 0.09708416 -0.09931715 0.078126304
0.07100753 0.008321459 0.13215637 -0.049590863 -0.025782743 -0.059453513 0.020902239 0.035092093
0.01294149 -0.073826015 -0.052714083 0.046407104 -0.11204106 -0.011452133 -0.003697531 -0.045339804
0.049924552 0.006554719 0.09981455 -0.013789055 -0.0822954 0.09098213 0.013553766 -0.03762803
-0.09295906 0.0246363 -0.12456859 0.032771975 0.06993669 -0.11655844 -0.094305396 -0.09124101
0.112926625 0.11842571 0.007817835 0.11876982 -0.041026384 -0.11815785 0.052511062 0.053104583
0.13330933 -0.0008380558 0.10807131 0.07286695 0.096391454 -0.12120436 0.10373925 -0.11657303
0.12784578 0.00019888626 -0.107265525 0.036954384 -0.016059967 -0.11103902 -0.051054582 0.005012316
0.10051415 -0.04132885 0.07393354 0.012059287 0.015789405 0.031253245 -0.08994193 -0.10584662
-0.04354811 -0.114835426 -0.04557329 0.00063490553 -0.08292187 -0.055159293 -0.01330021 -0.002289043
-0.06908937 0.010280929 -0.02053236 0.03929652 0.0140541 -0.058369786 -0.03598146 -0.00072240585
-0.0799032 0.016202202 0.0018107633 0.054075256 0.02768559 0.09151679 -0.005118022 -0.08588515
0.05791644 -0.090398155 -0.018087864 -0.033588056 -0.04720278 -0.049381316 0.12112876 0.07404456
0.036096998 0.120507434 -0.118228294 0.01997894 0.08448331 0.08062315 -0.108512536 0.042043984

conv_layers.1.0.bias f4 [32]
00000000: 7837 623d bc3a d03d c355 ecbc 954c f33d
00000010: ca36 dbbc b8d5 8bbd 1cc1 7cbd 4a15 123c
00000020: e730 9cbc 4b34 803d c315 8ebd 4200 26bd
00000030: e75c 0ebe 60c7 dc3d 46ab cbbc 36ee d3bd
00000040: 4ac7 d1ba b53d 58bc e6a4 253d bf73 45bc
00000050: d73d ac3d 914c 2cbd fa25 40bd 80d9 01bd
00000060: 2d91 943c 3a08 d03d f254 85bb b643 be3d
00000070: 5ce0 c43d 56da 85bd b141 e3bb 8e47 68bd
0.05522868 0.10167453 -0.028849488 0.11879841 -0.026759524 -0.06827873 -0.0617076 0.0089162085
-0.019066287 0.06259974 -0.069377445 -0.04052759 -0.13902627 0.10780215 -0.024861943 -0.103481695
-0.0016004827 -0.013198306 0.040440463 -0.012051522 0.084102325 -0.042065207 -0.046911217 -0.031701565
0.018135631 0.10157819 -0.004068964 0.092902586 0.09613106 -0.06535785 -0.0069353213 -0.056708865

conv_layers.1.2.weight f4 [32]
00000000: 7893 7e3f 0a69 803f b93b 7e3f 919d 7f3f
00000010: 637a 803f 0a71 7e3f 6cbd 7e3f e361 803f
00000020: ca2d 7e3f a5d7 7f3f eb87 7d3f 11af 7f3f
00000030: a308 7f3f 2464 7e3f 85aa 7f3f e4a1 803f
00000040: 1953 7f3f 0da5 803f 06fb 803f f7a8 803f
00000050: 4155 803f 1b74 7f3f d86f 813f 4705 803f
00000060: 052e 7f3f e156 803f 7790 7e3f ce69 7d3f
00000070: 60cd 7c3f a93a 813f 86cd 7d3f a34e 7f3f
0.9944377 1.0032055 0.9930988 0.998498 1.003735 0.99391234 0.99507785 1.0029873
0.9928862 0.9993842 0.9903552 0.99876505 0.99622554 0.9937155 0.9986957 1.0049405
0.9973617 1.005037 1.0076606 1.0051564 1.0026017 0.9978654 1.0112257 1.000161
0.99679595 1.0026513 0.99439186 0.9898957 0.9875088 1.0096027 0.9914173 0.99729365

conv_layers.1.2.bias f4 [32]
00000000: 2206 d13b 3460 6fbb 7cbb 913a 6132 243b
00000010: a069 9db9 de84 cabb 450f 83bb 1f54 083a
00000020: 8827 38bb 3847 fe3b fed7 7fba cf52 353b
00000030: 940c 433b de3d 4cba 3781 a3bb ab16 0b3c
00000040: 8c50 f6bb 036c 05bc 781d 19bc e85d 923b
00000050: 96f8 b138 812d d0bb 3ebf afbb f994 4dbb
00000060: 5e53 2abc 3c39 26bb d788 16bc 5617 23bc
00000070: 08d2 27ba eabb 003c 8fc7 34bc c7a6 15bc
0.006378905 -0.0036525847 0.0011118497 0.0025054442 -0.0003002407 -0.00618039 -0.003999623 0.00052005233
-0.0028099734 0.007759955 -0.00097596634 0.0027667766 0.0029762136 -0.00077912014 -0.004989769 0.008489291
-0.007516926 -0.008143428 -0.009345405 0.004466761 8.4863204e-05 -0.0063530807 -0.005363374 -0.0031369312
-0.010395853 -0.0025363704 -0.009187899 -0.009954294 -0.00064018415 0.007857302 -0.011033907 -0.009134001

conv_layers.1.2.running_mean f4 [32]
00000000: 5e63 393e 40d9 5b3e 39b6 b83d dc23 5e3e
00000010: 90bb eb3d 7f91 163e 9917 b13d b0f2 163e
00000020: d6a8 f53d c03f 113e 26a8 843d f4fe 033e
00000030: 3d03 9b3d f406 7d3e b4a2 cc3d ec2e 123e
00000040: dcbb 373e 6106 1c3e 2c9a 3f3e df8f 193e
00000050: f4d1 2d3e ce18 053e c06d 0f3e acd2 043e
00000060: 209a 2b3e 9d0b 5a3e 84db 0a3e b7ae 4c3e
00000070: 1a1d 5b3e c0b7 e83d 5413 0f3e 2857 653d
0.18104312 0.21469593 0.09019131 0.21693367 0.11510384 0.1470394 0.08647079 0.14741015
0.119950935 0.14184475 0.06477384 0.12890226 0.07568977 0.24709684 0.09991971 0.14275712
0.17942756 0.15236808 0.18711156 0.14996289 0.16974622 0.12997743 0.1400671 0.1297099
0.16758013 0.21293493 0.13560301 0.19988523 0.2139782 0.113631725 0.13972217 0.05599132

conv_layers.1.2.running_var f4 [32]
00000000: 3fa5 483e f733 303e d774 df3d 9103 343e
00000010: 93c0 003e 8ba3 143e 273f f03d b2a7 433e
00000020: 12bd 043e 51ff 1a3e 6995 c73d ce71 243e
00000030: 754b 013e b403 583e 5cfe ee3d a34e 1f3e
00000040: 64cd 4e3e 81a0 123e f438 713e 3096 fb3d
00000050: 554a 373e 74f3 093e 1682 0d3e d0f5 f63d
00000060: dfa2 363e dcce 1a3e 9d16 283e 5866 023e
00000070: e0e0 513e 8fab 243e be2d 073e 35a2 c53d
0.19594286 0.17207323 0.10910957 0.17579485 0.12573461 0.14515512 0.11730795 0.1910694
0.1296275 0.15136458 0.097452946 0.16059038 0.12626441 0.21095163 0.11669609 0.15557341
0.20195538 0.1431904 0.23556882 0.12284505 0.17899449 0.13471776 0.13819155 0.12058604
0.17835568 0.15117973 0.16414876 0.12734354 0.20495939 0.1608107 0.13201043 0.09650079

conv_layers.2.0.weight f4 [32, 12, 7]
00000000: 55e3 413d 460d 29bd 4a2e 063d 44bf 003c
00000010: 19c5 99bd 4a9b 96bd 603a d7bd 1444 8ebd
00000020: dae5 f03c 9e02 043c 05d7 ad3d da75 cabd
00000030: 71e9 2a3b 90d0 babd 8dec a7bb d7d5 0a3d
00000040: bdf3 cdbd 524f c13d cc98 03bd 82b2 dd3d
00000050: bdbb 28bc f506 8e3d 2bb2 d23d 9802 1ebd
00000060: 53c6 f2bc 5286 773d affa c5bd 49dc 7a3d
00000070: 630e 9cbd f092 ce3d 28d5 91bd d4d7 3cbd
00000080: 5ca7 a33d 9a6a 1bbd 1fc7 ce3d 7d63 a13d
00000090: 11db c23d fb46 cfbd dea7 f6ba c376 33bd
000000a0: 61b8 973c 2722 b8bd b06b 3f3d b5a6 c0bb
000000b0: 07b8 5dbd 9a8b c1bd 842f 823d 506f 18bd
000000c0: 2890 a33d e114 b03c 801e d73c 0b95 a5bc
000000d0: 73c1 8fbc 8b2e 2ebd 17c9 c3bd 5676 843d
000000e0: bf73 8dbd 79ab 8b3d 9767 1bbd 48a7 813d
000000f0: 5d82 ba3d 207d 89bd 7305 b73d a546 783b
00000100: f1a8 a5bd 90f5 283d 54c3 573d d5a9 b03d
00000110: bcee d6bd 2fad ca3d edcd ad3d c5f6 e73d
00000120: 09f0 733d 4a5b 7dbd e920 953d c1d1 c93d
00000130: 49d4 1bbd eef4 b5bc accd af3d d43d b83d
00000140: caf5 923d 2234 9d3d 8ae1 6abd b0f5 b1bc
00000150: 16ba 3abd 1802 7a3d 03a2 113d a56a a9bd
00000160: d56c 2cbc a30e bfbd eb9c c8bd 0be0 dc3d
00000170: 948f 44bd 22fe 5a3d bbf4 e8bc a678 4cbc
00000180: 571a 2d3b 190c a63d 6fb0 a6bb 198f bb3d
00000190: 3a34 7f3d 4b93 8e3d 186c c4bd 4c47 3bbd
000001a0: f24a b3bd 6570 d9bc c344 e2bc d6fc 753c
000001b0: 36d6 c43d 9800 2d3d f890 99bd c12f 93bd
000001c0: f01d ba3d d31b 573c 5581 103d 6160 82bd
000001d0: cc5d d7bb d1a0 0d3d 885c 98bd f77d 7d3d
000001e0: 224c 5f3d 213b 64bd 7d52 36bd ed33 ecbc
000001f0: 5303 173c 2604 19bd 7c96 d53d dd95 e3bd
00000200: e04d 8bbd 0522 88bd aadc bc3c fa52 813c
00000210: 0c2f e4bc 964c c13d f04e babd c862 343d
00000220: 1104 77bd 165a bfbc 383b debd f6a1 a7bd
00000230: df15 b5bd 6f8d 523d be7b 0ebd 92f3 823d
00000240: b15b 5cbd 20d3 ecbc 4d75 693c 5e36 bf3d
00000250: fe01 bebc ae9f 913d 981c 1e3d aeb2 9b3d
00000260: 7457 803d a2d3 353d 2dd9 e1bc 2204 c8bc
00000270: 92a6 513d 0558 883d 3a96 dd3b e9d7 473d
00000280: 9aad 8ebd efe0 873d 3e4b 0ebc 8074 95bd
00000290: 52bc 48bd c69e 93bd fd07 823c 9b25 92bd
000002a0: a537 10bd 27ac c5bb 7945 8ebd e7bb 163b
000002b0: 79b9 5dbc 4698 2b3d 53fe 9e3d 6a08 93bd
000002c0: 2cd3 743d 9c4d 353a 0ff0 63bd 795d 33bd
000002d0: e241 d43c 8e24 a33c 1e26 29bc 5afe 69bd
000002e0: d02c 643d ed15 863c c2b2 d9bd d888 d9bc
000002f0: 1224 05bd 7996 27bd a149 77bd 4dd3 babd
00000300: a610 ce3d 7faa d6bd 5631 c83d 8cc4 aabd
00000310: 4a1c 07bd 6e57 35bd c2a5 66bd a998 2e3d
00000320: 10b4 873d fb67 9cbd 1200 56bd 68ff 713d
00000330: b048 16bc f608 d33c b0d6 673d 3849 21bd
00000340: b770 55bd e063 283d 2bb2 0fbd eda2 96bd
00000350: efd9 64bd 00fa 5abd 0a09 db3d 9340 9d3c
00000360: 053d 463d 9b41 b73c de8f 89bd 65f7 a43d
00000370: 14c4 c5bc b16b 00bd f9a7 b33d 1651 78bd
00000380: 61ef b43c e5dd afbd c936 5b3d ac06 0b3d
00000390: 337f cdbd 3dd9 5e3d 0e4f 593b 801a 5fbd
000003a0: 0e53 d13d fa2b 653d 0629 f93c 2fa0 44bd
000003b0: b896 83bd a2ec 75bd f281 2a3d 7d0d 153d
000003c0: d3ee 75bd 3e8b c43d 5642 853d 2fc0 1dbd
000003d0: a5c7 723d f598 4bbd f788 133d cadb ce3d
000003e0: 75c5 b2bd 66c3 35bd b9c3 243b 8c4c 953c
000003f0: 4c99 babd 16f2 9abd 7a38 1cbc a967 a9bc
0.04733594 -0.041272424 0.03275899 0.007858101 -0.075082965 -0.07353838 -0.10509181 -0.069465786
0.029406477 0.008057265 0.08488277 -0.0988576 0.0026079083 -0.091218114 -0.0051246346 0.03389534
-0.10056255 0.09438957 -0.03212814 0.10825063 -0.010298667 0.06934921 0.10287889 -0.038576692
-0.029635584 0.060430832 -0.09666955 0.061245237 -0.076199315 0.1008662 -0.071207345 -0.046104267
0.07990906 -0.03794346 0.10096573 0.07880304 0.0951444 -0.1012096 -0.0018818339 -0.043814432
0.018520536 -0.08990889 0.04673356 -0.005879248 -0.05413058 -0.09450455 0.06356719 -0.03721553
0.0798648 0.02149433 0.02625966 -0.02021267 -0.017548298 -0.042524856 -0.09559839 0.06467883
-0.069068424 0.06819815 -0.037940588 0.063307345 0.09106896 -0.06713319 0.08936586 0.0037883904
-0.08088864 0.04124981 0.052676514 0.08626143 -0.10494754 0.098963134 0.08486543 0.113263644
0.059555087 -0.06185464 0.07281668 0.098544605 -0.038044248 -0.022211518 0.08584151 0.08996168
0.07175787 0.07675959 -0.057343997 -0.021723598 -0.04558762 0.061037153 0.035554897 -0.08272294
-0.010523994 -0.093289636 -0.09795555 0.1078492 -0.04798849 0.053465016 -0.02843701 -0.012479937
0.0026413405 0.08107776 -0.0050869505 0.09158153 0.062305667 0.06961688 -0.0959093 -0.04572229
-0.08754529 -0.026542852 -0.027620679 0.015013894 0.0961117 0.042236894 -0.07498354 -0.07186843
0.090877414 0.013129192 0.03527959 -0.06366039 -0.0065724608 0.034577195 -0.07439524 0.061887708
0.054515965 -0.055720452 -0.04451226 -0.028833354 0.009217101 -0.037357472 0.10429093 -0.111125685
-0.06801963 -0.06647114 0.02305444 0.015786637 -0.027854465 0.09438436 -0.090970874 0.044039518
-0.060306612 -0.023358386 -0.10851139 -0.081851885 -0.08842062 0.051404413 -0.03478598 0.063941136
-0.05379838 -0.028909266 0.014249158 0.093365416 -0.02319431 0.071105346 0.038601488 0.0760244
0.0626668 0.044391282 -0.027569378 -0.024416033 0.051184244 0.066574134 0.006762293 0.048789892
-0.069667056 0.066346996 -0.008684931 -0.07297611 -0.04900772 -0.07208018 0.01587295 -0.07136079
-0.035209317 -0.006032485 -0.069468446 0.0023000182 -0.01353299 0.041893266 0.07763352 -0.07179339
0.0597717 0.0006916167 -0.05564886 -0.043790314 0.025910322 0.019914892 -0.010324029 -0.057127334
0.0557068 0.016367877 -0.106297985 -0.02655451 -0.032505102 -0.040914986 -0.060372952 -0.09122334
0.10061769 -0.10481738 0.09775035 -0.083382696 -0.032985963 -0.044272833 -0.056310423 0.042626057
0.06626141 -0.0763702 -0.05224616 0.059081465 -0.0091726035 0.025761109 0.056601226 -0.039376467
-0.052109446 0.041110873 -0.035082024 -0.073552944 -0.0558719 -0.053461075 0.106950834 0.01919583
0.048398037 0.02237015 -0.067168936 0.08054999 -0.024141349 -0.031352703 0.087722726 -0.060624205
0.022086801 -0.08587245 0.053519044 0.03394191 -0.10034027 0.054406393 0.0033158693 -0.05446863
0.102209195 0.055950142 0.03041507 -0.048004325 -0.06425232 -0.060040124 0.04162783 0.036389817
-0.060042214 0.09596871 0.06506793 -0.03851336 0.059272427 -0.049706418 0.03601929 0.10100515
-0.08729068 -0.0443758 0.0025141074 0.018224977 -0.0911127 -0.075657055 -0.009534949 -0.020679312

conv_layers.2.0.bias f4 [32]
00000000: dc2b 493d f113 d13d bdb2 65bb e185 e1bc
00000010: fc82 92bc 1a8e f4bc 9ca4 333d 772b debd
00000020: baa3 c13d dfb2 2ebb ab7e 8ebd b8cb 0fbd
00000030: 0da9 82bd 077b c8bd d1df 143c f2a1 63bc
00000040: 1cb5 47bd 0782 53bc 9be9 55bc 77c2 353d
00000050: 51b5 bebd b224 f8ba 5110 44bb 057a c5bd
00000060: 4050 c53d 57e4 50bd 6032 9e3d 0399 b43d
00000070: 0699 893c 6086 a53d 0b5d aebd 899f 69bc
0.049114093 0.10208882 -0.0035049163 -0.027529659 -0.017884724 -0.029852916 0.043858156 -0.10848134
0.094550565 -0.0026656908 -0.06957754 -0.03510639 -0.063799 -0.097890906 0.009086565 -0.013893591
-0.048756704 -0.012909419 -0.013056184 0.04437491 -0.09311927 -0.0018931834 -0.0029916952 -0.09642414
0.09634447 -0.05099901 0.07724452 0.08818247 0.0167966 0.080822706 -0.0851384 -0.014259228

conv_layers.2.2.weight f4 [32]
00000000: 9e15 7e3f 0651 7e3f 857b 7c3f 572d 803f
00000010: ed1e 803f 496f 7e3f a535 813f b4ce 7f3f
00000020: daba 7e3f b48e 813f 3844 803f 74e5 803f
00000030: 6f90 803f 5e0c 813f 8c47 813f 70e8 7f3f
00000040: a78a 7e3f a123 7f3f cd8a 7f3f 887d 7e3f
00000050: a975 803f 1b2d 803f df25 803f 560a 803f
00000060: 79dd 7f3f 19cb 803f d5ed 7e3f 6056 7f3f
00000070: 399b 803f 7ccd 803f 9a9d 7f3f 2961 803f
0.99251735 0.9934238 0.98625976 1.0013837 1.0009438 0.9938856 1.0094496 0.9992478
0.9950386 1.0121675 1.0020819 1.0070024 1.0044078 1.0081899 1.0099959 0.99964046
0.99430317 0.9966374 0.9982117 0.99410295 1.0035907 1.0013765 1.0011557 1.0003154
0.99947315 1.006198 0.9958165 0.9974117 1.004737 1.0062709 0.99849856 1.0029651

conv_layers.2.2.bias f4 [32]
00000000: ae0b be3b a7fb 043c 4608 ce3a 61b7 a8bb
00000010: 1d6c 49bb 917f ceb9 8ebd 3c3b ab2e 1a39
00000020: 06fa d0b9 78d2 b53a ddb5 573a 287a f537
00000030: 8732 b5bb 30d0 a03b ead6 91bb 7200 863b
00000040: 5325 d6bb 8054 8abb 4449 76ba 49df 1ebc
00000050: 95c9 9cbb 77aa 07bc 2b86 5f3b 9158 03bc
00000060: 3a11 74ba 1695 80bb 6bc8 e3bb 9dbe 9fbb
00000070: 88ec f0b8 283f fa3b 2997 ce3a 98ed 1bbc
0.005799732 0.008116639 0.0015719018 -0.0051488136 -0.0030734607 -0.00039386426 0.0028799507 0.0001470397
-0.00039859134 0.0013871929 0.0008228699 2.926316e-05 -0.005529705 0.0049076304 -0.0044506686 0.0040894086
-0.006535211 -0.004221499 -0.00093950727 -0.00969679 -0.0047847726 -0.008280388 0.003410707 -0.008016721
-0.0009310428 -0.0039240224 -0.006951382 -0.004875018 -0.00011488149 0.0076369233 0.0015761602 -0.009517096

conv_layers.2.2.running_mean f4 [32]
00000000: e4a7 443e ca90 3c3e 9c1e d93d 6dab 283e
00000010: fd46 233e da0a 3c3e 87c2 2d3e 88de 263e
00000020: 4ee0 5d3e d863 093e 2fda d03d ccab 033e
00000030: 20fa de3d e156 973d 2d1b 153e fc48 133e
00000040: 303b 1b3e 5f83 ef3d aea8 2a3e 7133 1a3e
00000050: adca d03d dbb9 263e 9ea0 0e3e 9d3f ea3d
00000060: 9f2b 473e b613 013e 2c13 4f3e e966 373e
00000070: e485 303e bfc4 3c3e 7065 d03d d9fb 3c3e
0.1920467 0.18414608 0.106015414 0.16471644 0.15945049 0.18363515 0.16968738 0.16295826
0.21667597 0.13416994 0.10197865 0.12858504 0.10887551 0.07389618 0.14561148 0.1438331
0.15159297 0.11694979 0.16665909 0.15058686 0.10194907 0.16281836 0.13928458 0.114379145
0.19450234 0.12605175 0.20222157 0.17910351 0.17238575 0.18434428 0.10175598 0.18455447

conv_layers.2.2.running_var f4 [32]
00000000: 64ae 2f3e 3fcb 183e dbf1 f53d b9a3 4f3e
00000010: 4d01 7d3e 9314 5c3e e996 2d3e e0b7 2e3e
00000020: 72eb 1b3e e239 e43d 1fd8 fb3d ced6 1e3e
00000030: 69cd 043e c2d3 e33d 732b 2a3e 1ec6 143e
00000040: 7b8a 073e 0d58 033e 5621 403e 660e 003e
00000050: e9f9 113e 589d 0f3e fac2 063e eacd 0f3e
00000060: a9d0 343e d01a f43d e872 1e3e c664 0e3e
00000070: fe31 1a3e 4771 303e 6765 fe3d 4f11 563e
0.17156368 0.14921282 0.12009021 0.20277299 0.24707527 0.21492223 0.16952099 0.1706233
0.15226534 0.11143853 0.12297081 0.15511629 0.12968983 0.11124374 0.16618137 0.145287
0.1323642 0.12826557 0.18762717 0.12505493 0.1425549 0.14024866 0.13160315 0.14043394
0.17657723 0.119191766 0.15473521 0.1390563 0.15058133 0.17230712 0.12421685 0.2090504

plrnn1.cells.0.W_ih.weight f4 [64, 96]
00000000: 8435 a9bd ed4a 5e3d 49de 003e 9356 ca3c
00000010: b6dc d03b 1798 c13d 3f44 e33d d5cd f43b
00000020: 1e61 0ebe d790 2abe 1359 403e ddf4 893d
00000030: e423 373e 73f8 9ebd 919e 5c3d 7684 c3bd
00000040: 91b9 c2bd 8f5a afbd 9ddc 403e 3462 0c3e
00000050: c4a5 f9bd de70 07be 5c9d 713d 6f26 43bd
00000060: 129f 183c 93cb f43c 0cbb 2abe 9eea 1a3d
00000070: 7281 ccbb e768 0cbe 3354 43be 4f7c c23d
00000080: 8c5c 3ebe 1a37 c0bd d2ad ed3d 7ca3 03be
00000090: d01d bfbd 550b 01be a579 df3d ca2b 5f3d
000000a0: fb8d a53c 4f16 983d 2c04 623d aaeb 30bd
000000b0: dcc1 92bc c903 f3bd 9a09 b2bd 9496 5f3b
000000c0: 5199 fcbc 2314 353d 7161 c23d 50b7 163e
000000d0: e31b 463e 7806 b9bc b426 ac3d 8291 2abe
000000e0: 4e78 df3d a4f9 60bd 07a3 21be 28d6 1dbe
000000f0: 54d8 22be cd18 bbbd b91d b13d de4b 1fbe
00000100: 7c6e 8abc 1621 13bd cb2a 843d 2b31 a5bd
00000110: 10e4 ce3d 5a95 fabd 2cc9 d63d ea14 47be
00000120: ef98 0dbe a531 a63d 893e 0a3d fca3 0a3e
00000130: ce35 ce3d 0b77 1fbe 75fa 1f3e 1d77 57bd
00000140: c5ef 0bbd 2da7 9ebd 8666 23bd 4178 37be
00000150: 0bf8 4a3c 57e1 143e b337 fcbc b56d 1d3e
00000160: 8a6e b1bd cb33 a23d 20f0 253c f549 96bd
00000170: 71cf 443e 3549 423c 7526 123c 9588 96bc
00000180: dfe7 88bc a726 1c3e f508 f0bc c49e f43d
00000190: 96a0 683d 9e03 fa3d bce8 12be 7db5 2fbe
000001a0: 37bb 5cbd e1fb 4dbd 6c88 3c3e eb21 3c3e
000001b0: af4d 48bd d74c c3bd ad65 c03a bff4 883d
000001c0: 157b 743d b0a8 f33c 31d3 103e b319 923c
000001d0: 73f7 213e 6b07 2a3d 513f 5bbc 57b0 2b3e
000001e0: a628 fa38 ae5f 44ba a1b9 35bd 6d43 f63d
000001f0: 24db 4cbd fd7b 233e 029c d03d c1d5 a1bb
00000200: e75b eabc 51a8 903d 4b0e 47be 80d9 93bd
00000210: 54ed 8dbd 6399 b4bc 628c c1bd 55b1 b7bd
00000220: ec08 ba3d 9bc2 07bd 4063 07be 48fc b9bc
00000230: 5516 763d 0b76 a4bd 61ee 283e f8e1 0bbe
00000240: f806 2a3e e26d a03d ff6e f6bd 472f 35be
00000250: 25c4 823d 7076 1ebd ebfa 3c3d fd25 b73d
00000260: 3cf2 04be 1fc1 923c bd2d 36bd 9e80 25be
00000270: 3948 bb3c 8251 153d e2cd 0fbe 810b 323e
00000280: fb7d be3d b8b2 de3d 9d0e 33be cf2c 2abe
00000290: ff0b a13d 9180 ef3d e88c 30be fb30 413e
000002a0: 7070 35bd 246a 28be 4155 11be df48 3ebd
000002b0: 0fbc c73d e273 14be d970 073e 6904 443e
000002c0: 625a 323e 54a9 a13d 1a52 a9bd e5e2 9bbd
000002d0: 3027 0a3e 4f4b 18bd ed2a bc3c b4f0 353e
000002e0: d567 3ebe cbe5 45bd 0b18 8abd 4995 11bd
000002f0: 50ab aab6 e07d 2ebd 5148 353e 9bf3 963d
00000300: c3e0 01be 952d 403e 747d 4bbd b7aa 173d
00000310: ed75 073c a882 17be 2bd4 d83d 5c55 efbd
00000320: b2ca 2bbe 1935 263e 7281 003e 5a7d c2bd
00000330: caa1 0abe 5e19 2c3e cfb5 8e3d d529 0abe
00000340: bbe5 27be 2876 acbd cab8 e6bd ece2 8e3c
00000350: 8fdc a23c f1be 47be a7c7 d93d 717d df3d
00000360: fad5 2cbe daa6 123e c3a7 a3bd 597f e13d
00000370: 0287 4d3e b858 033e 5615 043e 0966 503c
00000380: 43ec 103d f26f 27be cba5 10be badd 233e
00000390: 18f5 3abe e51d be3d caac d2bd b7a0 2d3e
000003a0: 0a59 1b3e 98a9 64bd 512b 04bd c0ca 11be
000003b0: daad 383e 32a7 eabd 98fc 8b3d 425a 063e
000003c0: 7532 39be 63bc 49be 7867 13be afbd afbc
000003d0: c736 f23d ac8b 75bd 96a6 bbbd 15a6 ff3d
000003e0: aad8 173e 6b4b cd3d 9ee8 233e 8874 2fbe
000003f0: 4521 39be 418c ff3c 792f 2ebe 8672 80bd
-0.082621604 0.054270674 0.12584795 0.024699485 0.006373967 0.09452837 0.11097001 0.007470826
-0.13904235 -0.16656815 0.18783979 0.06736157 0.17884785 -0.07762232 0.05386216 -0.09546749
-0.0950805 -0.085621946 0.18834157 0.13709337 -0.121898204 -0.13226649 0.05898796 -0.047644075
0.009315269 0.029882228 -0.16672915 0.037821405 -0.006241017 -0.13711892 -0.19075088 0.09496366
-0.18589991 -0.0938551 0.11605419 -0.12855333 -0.09331858 -0.12601979 0.10911874 0.05448512
0.020209303 0.0742613 0.05517976 -0.043193497 -0.017914705 -0.11865956 -0.086932376 0.0034116851
-0.030834826 0.044208657 0.09491242 0.14718366 0.19346575 -0.022586092 0.084058195 -0.1665707
0.10911618 -0.054925576 -0.15784846 -0.15413725 -0.15902835 -0.0913559 0.08648247 -0.15556285
-0.016898386 -0.035920225 0.064534746 -0.08066019 0.10102093 -0.12235518 0.10487589 -0.19441572
-0.13827871 0.08114938 0.033751044 0.13539118 0.10068856 -0.15572755 0.15622886 -0.05260383
-0.03416421 -0.0774673 -0.039892696 -0.17916967 0.01238824 0.14539085 -0.030788278 0.15373881
-0.08663662 0.07920035 0.010128051 -0.07338325 0.19219758 0.011858274 0.008920302 -0.018375674
-0.016712127 0.1524912 -0.029301146 0.11944345 0.05679377 0.12207721 -0.14346594 -0.17159076
-0.05388948 -0.05028904 0.18411416 0.18372314 -0.04890221 -0.095361404 0.0014678739 0.066873066
0.059687693 0.029743522 0.14143063 0.01783452 0.1581705 0.04151098 -0.013381795 0.16766487
0.000119285 -0.0007491064 -0.044366483 0.12024579 -0.050013676 0.15965267 0.10186006 -0.0049388115
-0.028608276 0.07063354 -0.19439046 -0.07219219 -0.06930032 -0.022045797 -0.09450604 -0.0896937
0.09083733 -0.033144575 -0.13221455 -0.022703305 0.06007989 -0.080303274 0.16497184 -0.13660419
0.16604221 0.078334585 -0.120328896 -0.17693816 0.06385068 -0.03868717 0.04613773 0.089427926
-0.1298303 0.017914353 -0.044477213 -0.16162345 0.022861587 0.036454685 -0.14043382 0.17387201
0.093013726 0.10873932 -0.17486043 -0.16618656 0.07863616 0.11694444 -0.17241251 0.18866341
-0.044296682 -0.1644674 -0.14192678 -0.046456214 0.09752666 -0.14497331 0.13226642 0.19142307
0.17417291 0.07893625 -0.08267613 -0.07611636 0.13491511 -0.037181195 0.022969687 0.17767602
-0.18594296 -0.04831485 -0.06742867 -0.03554276 -5.086338e-06 -0.042600513 0.17703368 0.07370683
-0.12683396 0.18767388 -0.04968019 0.03702804 0.008267862 -0.14795935 0.10587343 -0.11686203
-0.16776541 0.16231193 0.1254938 -0.09496565 -0.1353828 0.16806552 0.06968271 -0.1349252
-0.16396229 -0.08420974 -0.112657145 0.01744219 0.019880561 -0.19506432 0.10633784 0.10912598
-0.168785 0.14321461 -0.079909824 0.11010618 0.20071033 0.12826812 0.12898764 0.01271964
0.035381567 -0.16351297 -0.14125745 0.1600255 -0.18257558 0.09283046 -0.10286863 0.16955839
0.15170684 -0.0558258 -0.032267872 -0.14237499 0.18035069 -0.11457671 0.06835288 0.13120368
-0.18085654 -0.1970077 -0.14394939 -0.021452753 0.11826854 -0.059947655 -0.09162633 0.124828495
0.14828745 0.100241505 0.16006705 -0.17134297 -0.18079098 0.031194808 -0.17010297 -0.062718436

plrnn1.cells.0.W_ih.bias f4 [64]
00000000: bc41 c13d f7e7 0abd 9d0d 90bd 54fc 9bbd
00000010: ac21 16bd 00ba 183b 8387 b93d 4442 be3c
00000020: 0455 56bd 53e1 f7bb f945 b6bc 5f31 9e3c
00000030: a4b9 263d 5590 73bd 8c1f 013d a838 2d3d
00000040: 8528 18bc 5342 9abd a39c 853d a160 c0bd
00000050: 8bb0 643d 9ffa 5d3c 0dfb ddbc 6d13 3ebd
00000060: 2d80 8a3c 4b41 56bd f8b7 f2ba 9c9b 8d3d
00000070: 67b8 38bc 22fe 86bd 762a b13d bcb6 8e3d
00000080: 8f6b b43d cf29 09bd 0248 d9bd 3ca7 21bd
00000090: e429 853d 9a8a ff3c 9439 a13d cf85 4e3d
000000a0: 9b0e d8bd aeb3 d9bd 619e 88bc 5373 98bd
000000b0: 513b 7abd 01c3 853c f848 d0bc 6257 a13d
000000c0: 8c3b 52bd 65f0 443d d765 39bd 6fc6 46bd
000000d0: f3de c13d d446 e73b c726 d43d 72dd babd
000000e0: ee3d 2cbd 99e0 b9bd 461e b63d c252 363d
000000f0: d91d 303c 0949 b43d 4fce 9ebd 88f9 91bd
0.09436366 -0.033912625 -0.070338465 -0.07616487 -0.036653206 0.0023304224 0.0905905 0.023224957
-0.05232717 -0.0075647025 -0.022250162 0.019310651 0.040704384 -0.059463818 0.031524226 0.04229036
-0.009287004 -0.075321816 0.06524017 -0.093934305 0.055832427 0.013548522 -0.02709725 -0.046405245
0.016906822 -0.052308362 -0.0018517962 0.06914446 -0.011274434 -0.06591441 0.08650677 0.069684476
0.08809578 -0.033487137 -0.106094375 -0.039466128 0.06502131 0.03119402 0.0787231 0.05042058
-0.10549661 -0.10629974 -0.016677083 -0.07443871 -0.061091725 0.016328337 -0.02542542 0.07877995
-0.05132632 0.04808082 -0.045263138 -0.048529085 0.09466352 0.007058004 0.10358959 -0.091242686
-0.04205125 -0.09076042 0.08892493 0.044512518 0.010749304 0.08802993 -0.07754194 -0.071276724

plrnn1.cells.0.W_hh.weight f4 [64, 64]
00000000: ca63 62be d6cb 85bd a7f2 8f3d ce5d 4ebe
00000010: 54cb 50bd 22de 80bd b277 bcbc 6707 d33d
00000020: ddac 60bd 01b4 cfbd 4847 04bd 0c7e 7cbc
00000030: 47ea 14bd adfd 66bd 654a 6e3e ebaf cf3d
00000040: 8b7c f73d 5fd5 e2ba 5f3e 7c3c f806 23bd
00000050: ed9b c23d f139 e83b 6f60 a93e 6c4b 583d
00000060: e8fa 79be ea6f 313d f8df 7bbc fc47 24bc
00000070: 0d57 64bd c10f b03d 1244 0ebe 46e2 853e
00000080: 2236 c4bc 1d98 303e 64a6 c23d 791c f83c
00000090: ad86 8a3d 7efe 73be 648e 2e3d 0104 b2bc
000000a0: ffb5 033e 5b06 873e 019c 9e3d a7ba 69bd
000000b0: 8b26 b13d b919 e73c 05e4 08be c357 223d
000000c0: 5e9c bc3c 42d6 33bd 9bf9 b7bd c587 533c
000000d0: ee82 983d 0da2 f43d f459 c4bd cd59 b1bd
000000e0: 07bc 083d 2254 0fbd 48c0 0037 66a7 bc3e
000000f0: f4f5 7a3e e7e6 0d3e ad86 2e3b d894 bfbd
00000100: 3ae7 4f3d 2b17 b6bd f35d 933d e0ab b13d
00000110: e990 0d3e cc8c 97bd 326f 90bd 4fc2 dfbd
00000120: a916 11be 37f3 8a3d c0b1 d1be 1499 c43d
00000130: 0b76 dabe 16ce 0d3e c6ea 293e 79f0 6d3c
00000140: 01b5 5ebd 86a0 973d b93e b2bd 81c5 543e
00000150: 6118 74bd f51c 303d c785 363e bd75 22be
00000160: b777 a93d 6b16 093e b7d3 7ebe 496b 5dbe
00000170: d384 68bc c2a3 41bc 4469 2d3d c144 053e
00000180: 700f a9bd fc79 83bd 90ac ecbd bbc0 65bc
00000190: 1f7a 133c fe40 8ebc 82b3 e9bc 42d5 80bd
000001a0: d8cd dcbd bd69 8dbd 7982 88ba 7deb 0abc
000001b0: 065c 13bd 7795 28be ecc0 d33c 8c9a 153d
000001c0: c6db ae3c 6be7 25be 7058 e03d 67d8 833d
000001d0: a115 24be eb13 223e 4b28 a73d 3e10 6d3d
000001e0: 5f63 623c 874d bf3d 1197 8e3a 92dc cdbd
000001f0: 6264 a33d 8acf 053e eaf7 dbbc 2de5 713d
00000200: 2fe4 a4bd be41 febd e9c1 0f3d f6dd 07bd
00000210: f3ff 713e 6f3d 04be c12d 433e 01f5 0d3e
00000220: 1064 d5bd 832a b93d db79 46bd 2598 093e
00000230: 4732 ab3d bc6e 01be ba92 55be 2445 d13b
00000240: 6a76 923d cb58 0abd 5880 02be 8173 743d
00000250: dc8a a13d d4fc 28be 0930 d9bd 998f a0bd
00000260: a026 8bbd ef89 1e3e 6277 06bb f81b 9fbd
00000270: 10ab ddbd 5c78 d5bd 33f8 7c3d f53b e03d
00000280: 1b40 0f3c dc34 ed3d fff2 4bbc dafa 9abd
00000290: 9648 88be eede 9cb8 fed4 2b3e eff3 b7bd
000002a0: 04cb dbbd 33af ae3d a07c 20be 3c55 8cbd
000002b0: 29c2 eabd a12b 863c e814 59be a90f 8d3e
000002c0: 459b f03d 7e16 8f3d c657 7cbc 5b7a ec3c
000002d0: 29bd da3d 67f8 2c3c 1014 443e 6e23 5abe
000002e0: 1d3f ec3d e26b ccbd 9e82 2ebe 4ad6 49be
000002f0: 5d51 813d 0e53 3abe 056d ec3d 7978 1dbe
00000300: f4f5 c33c c713 203e 00c8 263e 2322 abbd
00000310: 7569 3abd d5c5 57be 8402 1cbd 8910 a93c
00000320: 3bbe 9a3d c609 1fbe 411f 763e bbc9 febd
00000330: aec9 db3c 0798 9a3c 2b94 b13c 3e46 463e
00000340: 6f0b 97bc b275 e9bc 78e7 623d 4bd0 05be
00000350: 0967 d43c 82de 583c 37ba 023e 056d 8cbd
00000360: 8e06 16bd 5bdc 183e c035 14bd 5e6f 3c3e
00000370: 2822 1ebe 446f 0dbd 261d 10bd bde4 ca3c
00000380: 77b1 923b 374e 523d 39c3 29be a370 183d
00000390: 3492 36bd a4f9 e63d 7e81 09be 8492 54bd
000003a0: b4ba 94bc 0e83 48be fcc7 32be 1de4 493e
000003b0: 3d85 593d 6b0c 84be 5281 5bbe c1d8 84bd
000003c0: 28b7 39bd fcd8 ebbd e856 413c e005 7abe
000003d0: 92c2 64be 4574 123e 602b 0b3e d685 133d
000003e0: c0de 35bb 9ab0 ea3c e3f9 0f3d 189c c0bd
000003f0: 57bc 8bbd f821 da3d 3e5d 853e 161c 66be
-0.22108379 -0.06533019 0.07028704 -0.20152971 -0.05097516 -0.062923685 -0.023006294 0.10304146
-0.054852355 -0.10141755 -0.03229454 -0.015410911 -0.036356237 -0.056394268 0.23270567 0.101409756
0.120843016 -0.0017306021 0.01539573 -0.039801568 0.09502397 0.0070869853 0.33081385 0.052806303
-0.2441212 0.04331962 -0.0153732225 -0.010026928 -0.05574708 0.08596755 -0.13893154 0.26149195
-0.023951594 0.17245527 0.09504393 0.030287014 0.067639686 -0.2382755 0.042616263 -0.021730425
0.12862395 0.26372036 0.07744599 -0.05706277 0.086499296 0.028210508 -0.13368233 0.039634477
0.02302378 -0.043905504 -0.08983155 0.012910788 0.07446848 0.11944971 -0.0958747 -0.08659706
0.03338244 -0.034992345 7.6741635e-06 0.36846465 0.24507886 0.13857614 0.0026630566 -0.093545616
0.050757624 -0.08891138 0.07195654 0.08675361 0.1382481 -0.07399902 -0.07052459 -0.10925733
-0.141688 0.06784671 -0.40955925 0.0959951 -0.42668185 0.13848147 0.16593465 0.014522665
-0.054371838 0.07403664 -0.0870337 0.20778467 -0.059593562 0.042996366 0.1782447 -0.15865226
0.08274787 0.13387458 -0.2488545 -0.21622957 -0.014191824 -0.011818828 0.042336717 0.13014509
-0.082548976 -0.06419751 -0.11556351 -0.014023001 0.009001284 -0.017364975 -0.028527979 -0.06290676
-0.10781449 -0.069049336 -0.001041486 -0.008478996 -0.035976432 -0.16463266 0.025848828 0.03652434
0.02134503 -0.1620156 0.10954368 0.0643776 -0.16023876 0.1582791 0.08161982 0.057876818
0.013817637 0.09340959 0.0010878762 -0.10051836 0.07978131 0.13067451 -0.026851613 0.05905645
-0.08051335 -0.12414883 0.035097037 -0.033170663 0.23632793 -0.1291406 0.19060422 0.13862993
-0.10419476 0.090413116 -0.048456054 0.13436945 0.08359199 -0.12639898 -0.20856753 0.006386416
0.07151492 -0.033776086 -0.12744272 0.059680466 0.078878134 -0.16502696 -0.10604865 -0.07839889
-0.067944765 0.15482305 -0.0020517935 -0.077690065 -0.10823643 -0.10423347 0.06176014 0.10948936
0.008743311 0.11582348 -0.0124480715 -0.075673774 -0.2661788 -7.4801836e-05 0.16780469 -0.089820735
-0.107320815 0.0852951 -0.1567254 -0.06852195 -0.11462814 0.016378226 -0.21199381 0.2755101
0.11748365 0.06986712 -0.015401786 0.028866937 0.10680611 0.010557271 0.19148278 -0.21302578
0.115354754 -0.099815145 -0.17042014 -0.19710651 0.06314347 -0.18195745 0.11544231 -0.15377988
0.02392099 0.15632544 0.16287231 -0.083561204 -0.045510728 -0.2107156 -0.038088337 0.020637767
0.07555815 -0.15531072 0.2403536 -0.12440821 0.026829567 0.01887132 0.021677097 0.19362733
-0.01843807 -0.028498504 0.055396527 -0.13067739 0.025928037 0.013236644 0.12766348 -0.06856731
-0.036627345 0.14927809 -0.036184072 0.18401858 -0.15442717 -0.03452994 -0.035184048 0.024767274
0.004476722 0.051344123 -0.16578378 0.037216794 -0.044573024 0.11278084 -0.13428304 -0.05189754
-0.018155433 -0.19581243 -0.174591 0.19715925 0.05310558 -0.25790724 -0.2143605 -0.06486655
-0.045340687 -0.11515996 0.011800505 -0.24416304 -0.22339848 0.14302166 0.13590765 0.036016308
-0.0027751178 0.028648663 0.03515042 -0.094047725 -0.06823032 0.1065101 0.260477 -0.22471651

plrnn1.cells.0.W_hh.bias f4 [64]
00000000: 5ea4 28bd 8ac5 af3b 23e2 2bbd a85d dbbd
00000010: 0319 643d 7d7c c6bd fcd6 ffbd da39 f03c
00000020: 6afe ba3d c217 3c3d 908a a7bd 1007 8e3d
00000030: eef5 15bd 2a4e 7dbc 8e39 953d 5bd6 2b3d
00000040: d6c3 40bd ac52 913d 94c1 07bd f29f f8bc
00000050: bb3e bc3d 777e fcbc 7ff9 c7ba 56fd df3d
00000060: 1b9d ea3d 3761 133d 56a4 c53d 7c3a c9bc
00000070: fbc7 7fbd b4b2 f33d 8694 943d 2f84 bb3d
00000080: d4c6 67bd 54d1 813d 6bda c43d 9aa6 dd3b
00000090: 03e9 a13d 9e7d e4bd 1c41 3a3d f90b e5bc
000000a0: ced4 df3d eae0 223d 6df8 f33d 6a2c 47bd
000000b0: 4a77 883c 91d9 c13d 8364 c5bd 9518 37bd
000000c0: 7eca c2bd b396 bdbd fb41 7a3d 83ee 0abd
000000d0: 314c b13d 3129 cb3b 8569 3b3d 0a0e e23b
000000e0: df66 fabd cc59 bcbc 8fe1 79bd 9e6f 5fbd
000000f0: d436 da3d 882a d7bd 0ec0 c8bd a758 16bd
-0.041172378 0.0053641247 -0.041963708 -0.10711223 0.055687916 -0.09691713 -0.12492177 0.02932446
0.09130557 0.045921095 -0.081807256 0.06934941 -0.03661149 -0.01546053 0.07286368 0.041952472
-0.047061764 0.070958465 -0.033143595 -0.030349705 0.091916524 -0.030822022 -0.0015256851 0.10936992
0.11455747 0.035981383 0.09650485 -0.02456402 -0.062446576 0.11899319 0.07254891 0.091560714
-0.0565861 0.06338754 0.096119724 0.006764245 0.079057716 -0.11156772 0.04547225 -0.02795981
0.10929261 0.039765276 0.11912618 -0.04862634 0.016658444 0.094653256 -0.09638312 -0.044701178
-0.095112786 -0.09257259 0.06109808 -0.03391887 0.086571105 0.0061999788 0.04575493 0.0068986462
-0.12226652 -0.022992037 -0.061006125 -0.054549806 0.10654989 -0.10506159 -0.098022565 -0.03670564

plrnn1.cells.0.activation.breakpoints f4 [3]
00000000: 0000 00c0 0000 0000 0000 0040
-2.0 0.0 2.0

plrnn1.cells.0.activation.slopes f4 [4]
00000000: e69f 7e3f 29c4 7d3f 08bb 7e3f f15d 7e3f
0.99462736 0.9912744 0.9950414 0.99362093

plrnn1.cells.0.activation.intercepts f4 [4]
00000000: c0d2 0e3c c9f0 123b 893e b0bb f057 dbbb
0.008717239 0.0022421351 -0.0053785485 -0.0066938326
