pytorch_plrnn_multilabel_best_model.pth (torch, 141671 bytes, 54 tensors)

conv_layers.0.0.weight f4 [32, 12, 3]
000000 bf 7c 02 3e 43 f0 09 3e b8 11 0b bd 0c 5b 20 3e
       0.127429 0.13470559 -0.033952445 0.15659732
000010 22 f1 16 bd 66 15 28 3d d6 11 ad bd a1 d4 be 3d
       -0.036851056 0.041036032 -0.084506676 0.093178995
000020 c8 b2 1f 3e a9 c4 fe bd 4f 09 17 3e 20 67 d2 3c
       0.15595543 -0.12439854 0.14749645 0.02568394
000030 f3 92 00 3e 2e 79 ac 3c 2f cc bc 3d 90 77 b7 bc
       0.12556057 0.021053877 0.092186324 -0.022395879
000040 7b d9 02 3e 56 dc ce 3c 59 2f 93 bd 95 7c 3d 3d
       0.12778275 0.025251549 -0.07186765 0.04626139
000050 a7 30 a5 bd 59 be 81 bc 2c 91 70 bd 58 1c e2 3d
       -0.0806592 -0.015837835 -0.058732197 0.110405624
000060 d9 de 02 be 21 f6 8a bd ff 93 36 bd ac fa d6 bd
       -0.12780322 -0.067852266 -0.044574734 -0.104970306
000070 46 45 b7 3c e4 60 23 be 36 1a 12 3e 22 41 10 be
       0.0223719 -0.1595493 0.14267811 -0.14087346
000080 a7 b3 07 3e 11 9e cd 3c 44 2a 54 bd e6 fe d4 3d
       0.13252126 0.025099786 -0.05179812 0.104001805
000090 39 af e6 3c c3 05 11 3e b4 79 af 3c 84 98 38 bd
       0.028159725 0.14162354 0.021420337 -0.045067325
0000a0 57 55 4d 3d 39 c9 39 bd 03 a0 af 3d 05 09 1c 3e
       0.050130215 -0.045357917 0.08575442 0.15237816
0000b0 7b a6 c9 3d 31 c0 a3 bd 3a 5e af 3d 08 76 fc 3c
       0.09846207 -0.07995642 0.08562894 0.030818
0000c0 18 cf c5 3d 46 fd ba bd 25 3b 24 be f0 f1 9d bd
       0.096586406 -0.09130339 -0.16038187 -0.077121615
0000d0 7a 03 fc bd 18 b9 0e 3e 41 1b 0d 3d ed 95 60 3d
       -0.123053506 0.13937795 0.03444982 0.05483048
0000e0 a3 e1 32 3d 69 b8 91 bc a6 f7 f0 3d 53 61 03 be
       0.043672215 -0.017788129 0.11765985 -0.12830095
0000f0 4c 93 21 bb 90 ec 00 be 1e ef 31 3d c6 fc 8e bd
       -0.0024654446 -0.12590241 0.04344093 -0.069818065
000100 c8 5a 30 3d 97 3a 35 bd 0c ad 12 3e 09 7a bf bd
       0.043055326 -0.04424533 0.14323825 -0.09349448
000110 83 93 c4 bd ca 1d b9 bd a3 db 1d 3e 6a 99 6c 3d
       -0.09598448 -0.09038885 0.15415816 0.057763495
000120 62 e5 27 3e 8e ae 09 be 89 f9 29 be 50 83 f6 bd
       0.16396096 -0.13445494 -0.16599096 -0.120367646
000130 06 c5 d5 bd a1 5e 91 3d aa 50 79 3d c9 7a 10 3e
       -0.1043797 0.07098127 0.060867943 0.14109339
000140 af 72 ae bd 79 ab f3 bd b7 e1 a6 3d f7 7e 8c bd
       -0.08517968 -0.1189794 0.081485204 -0.06860154
000150 0b c6 e5 3d 08 63 14 bd 83 dd c9 3d db 18 03 be
       0.11219414 -0.036227256 0.09856703 -0.1280245
000160 bb e9 af bd 41 d8 44 3d b2 3a f0 3c 7a 5f 42 bd
       -0.085895024 0.0480578 0.029324863 -0.047454335
000170 ed 02 bb 3d 0f 62 ea 3d 64 1b 00 be 96 86 c3 bd
       0.091314174 0.114444844 -0.12510449 -0.095471546
000180 ea 49 15 3e 2a 81 77 bd 81 e7 83 bd 1b bd 2b be
       0.14578977 -0.060425915 -0.0644064 -0.16771357
000190 aa 4e ba bd e3 d7 1f 3d 47 38 c9 bc d9 b1 ec bd
       -0.09097035 0.039024245 -0.024562968 -0.11557359
0001a0 9e c5 98 3b b2 ec e6 bd ea e6 0f be 51 a2 c3 bd
       0.0046622297 -0.11275615 -0.1405293 -0.09552444
0001b0 cd fd 0e be 7a f7 ea bd ec fb 23 3e 8a 1c 0d 3d
       -0.13964005 -0.11472984 0.1601407 0.034451045
0001c0 66 26 2b 3d 63 71 21 be 5a 07 ed bd 41 43 6c bd
       0.041784666 -0.1576591 -0.11573668 -0.057681326
0001d0 60 13 d5 3c 4e a9 1e be 7b eb 77 bd 77 73 c5 bd
       0.026010215 -0.15494272 -0.060527306 -0.09641164
0001e0 d5 cd e6 bb 3c 59 92 bd 49 80 85 bc fe 99 dc bd
       -0.00704358 -0.07145926 -0.016296523 -0.10771559
0001f0 fc 46 f2 bd c7 cb d0 bd fc 10 68 bd 6a 53 03 be
       -0.118299454 -0.101951174 -0.056656823 -0.12824789
000200 fd d2 1b 3e 58 2a af bc 29 aa 17 3e 97 2d 85 3d
       0.15217204 -0.021382496 0.14811005 0.06502836
000210 d7 98 09 be 73 41 e1 3d a0 5b f8 bc 66 f8 4c bd
       -0.1343721 0.109988116 -0.030317128 -0.05004158
000220 5b 5f 15 be cc 4e 20 be 39 be 5b 3d ec 1d 32 bd
       -0.14587156 -0.15655059 0.053648207 -0.043485567
000230 be 78 87 3d 10 5a 08 be c7 7e ee 3d 79 6e fd bd
       0.066148266 -0.13315606 0.116452746 -0.123745866
000240 47 c6 08 bd ec 59 f9 3c 31 b5 b7 3d 41 e0 05 3e
       -0.033392217 0.030438386 0.089701064 0.13073827
000250 a9 fe 16 3e fb 72 11 be 3a 84 58 3d fc ff 92 bd
       0.14745583 -0.14204018 0.052860476 -0.071777314
000260 0e a2 03 bd b0 77 f6 bd 03 11 1d 3e 04 b4 f0 bd
       -0.03213697 -0.12034547 0.1533852 -0.11753085
000270 5e 76 ac 3d fd 32 67 3d ca 4d 2b 3d 34 16 c9 bd
       0.08421014 0.05644511 0.041822232 -0.09818688
000280 ac 4f 16 3e 68 4d 39 3d ef 69 94 3c 27 6b 13 be
       0.1467883 0.045239836 0.01811692 -0.14396344
000290 22 9a 87 3d 0b c5 f9 bc 67 6a 95 bd 73 c9 0e 3e
       0.066211954 -0.030489465 -0.07295685 0.13944034
0002a0 34 c8 e3 3c ba e1 ac bd f4 3e b2 bd 75 30 78 bc
       0.027805425 -0.084414914 -0.087034136 -0.015148272
0002b0 a5 c4 cf 3d 8b 12 3a bd 2e 25 ce bd 50 5c 4f bd
       0.10144929 -0.04542784 -0.10065685 -0.050625145
0002c0 a9 98 fa bd ec ac 68 3d 89 e9 05 3e d5 00 23 be
       -0.12236149 0.056805536 0.13077368 -0.15918286
0002d0 ea ca 20 3d d6 52 b4 3d d2 94 e0 3c ef a4 62 bd
       0.039256014 0.08804862 0.027414713 -0.055333074
0002e0 b5 6f b2 3d cd 32 ab 3d 84 d9 71 3d ca 65 e8 bc
       0.08712713 0.08359299 0.05904533 -0.02836885
0002f0 f9 f8 13 bd ed 4b 44 3c 51 77 06 bd 46 b2 3d bd
       -0.03612611 0.011980993 -0.032828633 -0.046312593
000300 ce 9f dd 3d b9 bc 11 3e fc 98 4d bc bc 65 1a bd
       0.10821496 0.14232148 -0.012548681 -0.037694678
000310 ba 3e 4c 3b aa c2 56 bc 5c 6c 10 3d c2 f7 36 3d
       0.0031165318 -0.013107935 0.03525959 0.044669874
000320 fe 81 1a be 30 72 71 bd ea da 14 3e c5 24 8a 3d
       -0.1508865 -0.05894679 0.14536634 0.067452945
000330 16 b9 3d bc 53 71 da bd 72 bf c3 bd 25 8e 1b be
       -0.011579772 -0.10666146 -0.09558 -0.15190943
000340 d6 63 6f bd 4c 8b 5f 3d 98 6a e2 3d d9 93 98 3d
       -0.05844482 0.054576203 0.110554874 0.07450075
000350 09 6d 1f be 6e 7f c7 bd f0 06 ec bc 76 ce 1f 3e
       -0.15568937 -0.09741102 -0.028811902 0.15606102
000360 d8 fd ce 3c 0b 33 13 bd db 56 8f 3d 11 a6 74 bd
       0.025267527 -0.03593735 0.06998988 -0.059728686
000370 69 15 c9 bd bf 61 ff 3d 95 c0 8b bd 22 82 0d bd
       -0.09818537 0.124698155 -0.068238415 -0.034547932
000380 92 46 2e be 28 97 dc 3d 68 38 f2 3d 4c 74 72 3d
       -0.17019108 0.10771018 0.11827165 0.05919294
000390 12 35 e7 bd 5c 67 21 be 3c 63 0f be 54 8b f9 3d
       -0.11289419 -0.15762085 -0.14002699 0.12184778
0003a0 81 8e b0 3d 9a ef 11 3e 93 6e aa 3d c8 f9 0a 3d
       0.086209305 0.14251557 0.083218716 0.033929616
0003b0 b9 83 cb bb e9 d1 02 be d6 a9 15 be 16 09 29 be
       -0.006210771 -0.12775387 -0.14615569 -0.16507372
0003c0 f2 96 92 3d 82 2e a3 bd ff ae 34 bd c6 37 c8 bd
       0.07157697 -0.07967855 -0.0441122 -0.09776263
0003d0 42 1d be bc de df 00 be 0e e4 ed bd f9 bd 7b 3d
       -0.02320731 -0.12585399 -0.116157636 0.06146047
0003e0 9b 02 54 bd c7 d3 d4 3d 23 d0 45 bd 0c 11 fc bd
       -0.051760297 0.10391956 -0.048294198 -0.12307939
0003f0 6b b1 ae bc 53 75 98 bd bf 1c 5f bd b5 1a 1e be
       -0.021324834 -0.07444253 -0.054470774 -0.15439875

conv_layers.0.0.bias f4 [32]
000000 3f 76 49 3d 56 12 8a 3c eb 0f cd bd 0b c7 0a 3d
       0.049185034 0.016854446 -0.10012802 0.03388123
000010 c2 63 33 3e 54 e2 f3 3d f4 30 f4 bd 61 03 1d 3e
       0.17518523 0.11908403 -0.119233996 0.1533332
000020 66 f7 37 3c 70 6b 9a 3d 19 cf 05 3e c4 70 03 3e
       0.011228418 0.07540023 0.13067283 0.12835985
000030 ea 62 04 be 3a 99 0b 3e ce d2 e9 bd 51 9a 1c 3c
       -0.12928358 0.1363267 -0.11417161 0.009558276
000040 4f 47 e7 bd 7b f8 f6 bc 0c da a2 3b b7 41 e0 bc
       -0.11292898 -0.030147782 0.004969841 -0.027375085
000050 3c cc 2e bd b2 4c c2 3c de 89 2c 3e 58 01 b6 3d
       -0.04267524 0.023718212 0.16849467 0.08886975
000060 0b 3a c3 3d 79 02 9d 3d ec bf 09 3e 4b 69 d1 ba
       0.09532555 0.07666487 0.13452119 -0.0015976814
000070 b9 76 83 3c 1e cf 09 3d 6c 63 14 be fe f4 09 be
       0.016047822 0.033644788 -0.14491051 -0.13472363

conv_layers.0.2.weight f4 [32]
000000 6b 21 80 3f d9 2e 80 3f 7a 7d 80 3f 6d dd 7e 3f
       1.0010198 1.0014297 1.0038292 0.9955662
000010 1e 91 80 3f f0 cf 7c 3f 0f 88 7e 3f 60 6d 80 3f
       1.0044286 0.9875479 0.9942636 1.0033379
000020 f7 f8 80 3f 02 0e 7e 3f 50 78 80 3f af 31 7f 3f
       1.0075978 0.99240124 1.0036716 0.99685186
000030 75 a0 80 3f 76 2a 80 3f e6 68 80 3f a1 45 80 3f
       1.0048968 1.0012958 1.0032012 1.0021249
000040 b9 78 80 3f ee f1 7f 3f ca a4 7d 3f f6 20 82 3f
       1.0036842 0.9997853 0.99079573 1.0166309
000050 c4 c3 7f 3f f2 31 7c 3f 68 d2 7e 3f 72 ca 80 3f
       0.9990809 0.9851371 0.99539804 1.0061781
000060 1c b4 7e 3f 29 3f 7e 3f b7 a9 7e 3f bf f4 7d 3f
       0.99493575 0.99315125 0.99477714 0.9920158
000070 88 2b 7f 3f 60 08 80 3f 40 54 80 3f d7 d6 80 3f
       0.996758 1.0002556 1.0025711 1.0065564

conv_layers.0.2.bias f4 [32]
000000 e2 c2 a4 ba 02 66 86 ba b4 8f 43 38 14 37 a0 ba
       -0.0012570287 -0.0010253789 4.6625457e-05 -0.0012223446
000010 f9 c9 ed 3b d6 4a f8 3b 37 76 90 3b 63 a6 0c 3b
       0.007256743 0.0075772805 0.0044086236 0.002146148
000020 ae 1b b9 3b 98 13 3d bb 93 03 ed 39 f4 6a ff bb
       0.0056490516 -0.002885079 0.00045206826 -0.007794732
000030 ed fc b1 bb 07 55 c7 bb 88 63 80 3b 93 01 d2 3b
       -0.0054317624 -0.006083134 0.003918115 0.006408879
000040 70 7d 69 3c 44 f8 15 bb b5 04 50 bb 76 5d 87 ba
       0.014251098 -0.0022883574 -0.0031741087 -0.0010327536
000050 b9 76 f7 bb c2 d7 e5 3b 0c 17 11 bb 8f 96 85 3a
       -0.0075519946 0.0070142457 -0.002213898 0.0010191965
000060 59 f5 35 3b 89 e9 06 bc 3f 95 5e 3b 31 03 3a 3a
       0.0027764647 -0.00823439 0.003396347 0.00070958125
000070 04 9d 9f bb 39 a7 01 bc 88 0c 13 3c df ce 3b bc
       -0.0048710126 -0.007913404 0.008975156 -0.011462896

conv_layers.0.2.running_mean f4 [32]
000000 ef 2a 2c 3e 1e 16 c3 3d 7a d7 22 3e f9 49 0f 3e
       0.16813253 0.09525703 0.1590251 0.13993062
000010 b3 c6 6a 3e 01 77 34 3e 9e 5b 81 3e 02 d1 9a 3e
       0.2292736 0.17623521 0.2526521 0.30237585
000020 cb 6f 23 3e 84 1a 39 3e 6d 6d 6f 3e 42 d4 4e 3e
       0.15960614 0.18076521 0.23381586 0.20198157
000030 24 0a 84 3d 9c 7b 73 3e 0d 66 b7 3d cc 51 69 3e
       0.06447247 0.23777622 0.089550115 0.2278511
000040 0c 5b af 3d 72 63 15 3e 0d a0 9d 3d 88 17 e3 3d
       0.08562288 0.14588717 0.07696543 0.110884726
000050 18 a9 eb 3d 30 ad d1 3d 38 69 77 3e dc 37 2c 3e
       0.115068614 0.10238111 0.24161232 0.16818184
000060 87 ab 2e 3e 9b 10 53 3e 1a 02 80 3e da bb 36 3e
       0.1705762 0.20611803 0.25001603 0.17845097
000070 57 e1 55 3e 32 05 6d 3e d4 97 9d 3d c6 ca 8a 3d
       0.20886742 0.23146513 0.076949745 0.06776957

conv_layers.0.2.running_var f4 [32]
000000 e9 73 38 3e eb 84 50 3d 24 09 ad 3d 96 ef 78 3d
       0.18012966 0.05090801 0.08449009 0.060775362
000010 c0 7d 34 3e bb bb d7 3d 94 62 97 3e 33 a4 e4 3d
       0.17626095 0.105338536 0.29567397 0.11164131
000020 45 ee f1 3d d8 c5 e2 3d 30 af b1 3d c6 28 82 3e
       0.118130244 0.11072892 0.086759925 0.25421733
000030 bf 5b 44 3d 1b f8 30 3e 22 24 a4 3d e4 78 f7 3d
       0.04793906 0.17282145 0.08014704 0.12083605
000040 bc 4f b3 3d 48 e4 57 3e 11 b0 33 3d 91 c8 8c 3d
       0.087554425 0.21083176 0.043869082 0.068741925
000050 3b 72 9f 3d 8f 29 ce 3d 21 99 c4 3d b7 88 bb 3d
       0.077854596 0.100665204 0.095995195 0.09156936
000060 39 09 a1 3d 1f 14 69 3e dc c1 8e 3e 12 55 b2 3d
       0.07863087 0.22761582 0.27882278 0.08707632
000070 db ae f0 3d f9 a1 d6 3d 63 c6 60 3d a4 c8 88 3d
       0.11752101 0.104801126 0.054876696 0.06678894

conv_layers.1.0.weight f4 [32, 12, 5]
000000 33 e2 af 3c 9d 2a 41 bd 29 51 e4 bb 93 63 05 bd
       0.021470165 -0.04715978 -0.006967683 -0.032565664
000010 d9 2c 95 3c 8b 1f ab 3d c1 c4 49 bd 57 9e b0 3d
       0.018209862 0.08355626 -0.049259905 0.08623951
000020 d9 a7 c5 3d 9a bb c6 bd 46 e0 cc bd c5 8d df bd
       0.09651155 -0.09703751 -0.10003714 -0.10915712
000030 98 bc a7 bd b2 7a 4f bd b3 56 c1 bb e8 6d 11 bd
       -0.08190268 -0.05065412 -0.005900228 -0.035505205
000040 29 81 85 bd a1 3a ea bc 70 99 2b bd c9 0d 03 3e
       -0.06518776 -0.02859241 -0.041894376 0.12798227
000050 bc 74 45 bd c2 9c cf bd a6 02 1a 3d 54 50 57 bc
       -0.04820703 -0.10137321 0.037600182 -0.01314171
000060 99 d8 cd 3d da 27 a7 3d 5b 61 f8 3d 46 9c c1 bd
       0.10051078 0.08161898 0.12127944 -0.09453635
000070 30 a5 ab 3d 70 c8 d1 3d 6c 08 87 bd 76 18 f1 3d
       0.083811164 0.102433085 -0.06593403 0.11772244
000080 2b 0e d9 3d e7 69 14 3c 8c 79 72 3d 7e b2 37 bd
       0.105984055 0.009058452 0.059197947 -0.044847958
000090 b8 69 e1 bd 6e 88 29 3d d1 21 5d 3d cb 1c ac bd
       -0.110064924 0.041389875 0.053987328 -0.08403929
0000a0 fd f7 77 3d 90 cc da bd 0d a6 e3 3d a4 64 0a 3e
       0.060539234 -0.106835485 0.11115656 0.13514954
0000b0 fb 4c 25 3d 8d b7 a9 bd a4 13 88 3d 7a 39 7b 3c
       0.040356617 -0.08286963 0.06644371 0.015333528
0000c0 6f fd 16 3d 30 c0 49 3d 13 8a ca 3d d4 74 44 bd
       0.036862787 0.04925555 0.09889617 -0.04796298
0000d0 1e cf 09 bd c1 25 11 3d a4 4e 91 3c 0e 06 e0 3d
       -0.033644788 0.035436396 0.017737694 0.10938655
0000e0 7b 9b 86 bd cf 30 15 bc 90 fc cb 3c 91 6c f5 bc
       -0.06572624 -0.009105875 0.024900705 -0.029958995
0000f0 85 3e ce 3d 79 e1 00 3d 3b b8 ea bd cf 88 1b bc
       0.100705184 0.031465027 -0.114609204 -0.009493067
000100 7b 29 7e bd d8 64 be 3c f0 43 18 bc c7 d9 03 be
       -0.062051278 0.023241445 -0.009293541 -0.12876044
000110 54 60 c8 bc a2 95 98 bc df 72 10 bd ed f9 e0 3d
       -0.024459995 -0.018626038 -0.0352658 0.109851696
000120 7f 1f 05 bd 76 15 94 3d b5 98 d5 3c 21 29 02 be
       -0.03250074 0.07230656 0.026073793 -0.12711002
000130 a7 22 19 3c 66 65 d8 3d f5 85 b2 bd a0 40 a0 bd
       0.009346641 0.10566215 -0.087169565 -0.07824826
000140 10 5e 07 3e c3 c0 cb 3d 24 be 9a bd 0c 3e 91 3d
       0.13219476 0.09948876 -0.07555798 0.070919126
000150 5c 93 c9 bc 07 11 fc bd 3e 12 d5 3c 5b 29 3d 3d
       -0.0246064 -0.12307935 0.026009675 0.046182018
000160 fd ed fb bc a9 35 3a 3d 29 10 fb bd 85 6e 95 3d
       -0.03075313 0.04546133 -0.12258942 0.072964706
000170 05 b7 d6 3d c2 08 9d 3d 59 da 09 3d 92 05 f5 3c
       0.10484127 0.07667686 0.0336555 0.029909883
000180 20 d5 de bd f6 9e 31 bd 93 10 a4 bb b8 8e 74 bd
       -0.10880494 -0.043364488 -0.0050068586 -0.05970642
000190 32 af c3 bd 9a 13 98 3d 51 0d 9e 3d 1d 9f f3 bd
       -0.095549 0.07425614 0.07717384 -0.11895583
0001a0 2e b3 46 3d 55 a9 68 3d a9 98 f4 3d 4d 69 82 3d
       0.048510723 0.056802113 0.1194318 0.06367741
0001b0 cc 70 e8 3d ea 4a 36 bd 9d 7d cd 3d 04 05 e2 3d
       0.11349639 -0.044505037 0.100337245 0.11036113
0001c0 86 85 02 be 6c ed dd bd f9 02 a8 3c 2b 37 ad 3d
       -0.12746248 -0.108363 0.02050923 0.08457788
0001d0 f3 2b 62 bd 56 ab 22 3c 0d 7b f7 bb 03 43 c5 3c
       -0.055217694 0.009928545 -0.0075525106 0.024079805
0001e0 31 bc 84 bd 9b 5d a2 3d b0 bd b8 3d 05 77 be bd
       -0.06481207 0.0792801 0.09020555 -0.09300045
0001f0 b1 66 c1 bb 55 56 e0 3b 69 27 32 3d aa 2c f4 3d
       -0.0059021343 0.006846229 0.043494616 0.119225815
000200 38 d6 13 3d b1 e9 f8 bc 9f cb f9 3d bf 2f 31 bd
       0.036092967 -0.03038487 0.12197041 -0.043258425
000210 62 b9 30 bd 3d 91 2e 3c 2f cb b2 bd c2 04 63 3b
       -0.043145545 0.010654745 -0.087301604 0.0034640287
000220 cd 6c c6 bd 67 cd 2c 3c 96 be 6f 3c 46 6c a8 3c
       -0.09688721 0.010547019 0.014632842 0.020559441
000230 41 ff d1 bd 33 28 f3 bd 16 e9 7c 3d 08 eb df 3d
       -0.10253764 -0.11872902 0.061745726 0.109335005
000240 78 cb e4 bd a5 47 42 3d 34 06 bf bd 6e ba 79 3c
       -0.11171621 0.047431607 -0.09327355 0.015242202
000250 2a 6f e3 3d 7c 7a b4 3d 7e 46 d0 bd 58 d4 92 3d
       0.11105187 0.088124245 -0.10169695 0.071694076
000260 c2 64 71 3d fc c4 8e 3b 37 3b 08 3e 35 a6 82 bd
       0.05893398 0.0043569785 0.13303839 -0.06379358
000270 75 a1 30 bd 0f 8b 97 bd 3d 1e aa 3c 9c 5a 39 3d
       -0.043122727 -0.0739957 0.020766372 0.045252427
000280 12 9c 9c 3b b8 5b a7 bd 72 4a 87 bd 7b c6 0b 3d
       0.004779347 -0.08171791 -0.06605996 0.034124833
000290 14 97 de bd ef bc 8d bc 4c 2d b4 bb ed 2a 66 bd
       -0.108686596 -0.017302005 -0.005498564 -0.05619328
0002a0 7a e3 13 3d 14 f9 62 3b 4f 7e bb 3d 53 29 38 bc
       0.03610561 0.0034633325 0.09154951 -0.011240321
0002b0 2b 51 a2 bd e8 28 a6 3d 24 8a cf 3b b7 9c fc bc
       -0.07925638 0.08113271 0.0063336063 -0.030836446
0002c0 34 9a a9 bd f5 ff 19 3d b9 69 05 be c7 d1 b0 3c
       -0.08281365 0.037597615 -0.13028611 0.021584405
0002d0 c2 ff 6c 3d 74 3e ef bd 62 c5 c7 bd 03 35 cd bd
       0.057861097 -0.11681834 -0.09754445 -0.10019877
0002e0 f9 17 e9 3d e9 43 df 3d a3 15 26 3b 21 ba e5 3d
       0.113815255 0.10901625 0.0025342486 0.11217142
0002f0 aa ab 2f bd 69 66 fc bd df 75 6a 3d 77 d7 30 3d
       -0.04288832 -0.12324221 0.057241317 0.043174233
000300 d7 c3 00 3e be 99 d5 ba 55 d5 b9 3d f9 a2 a9 3d
       0.12574707 -0.0016296429 0.09073893 0.08283038
000310 3e 71 cb 3d 52 38 ed bd b2 38 e9 3d 97 6c ea bd
       0.099337086 -0.11583008 0.11387767 -0.11446493
000320 6e f2 f9 3d 6a 6e 3a bc 91 54 f0 bd ec 8a 1e 3d
       0.12204443 -0.011378864 -0.1173488 0.038706705
000330 62 69 e2 bc 46 f3 00 be 53 aa 44 bd d7 b1 2b 3c
       -0.027638141 -0.12592801 -0.048013996 0.010479412
000340 04 ee c3 3d 9c a8 fd bc 55 c4 a5 3d ff 90 75 3c
       0.09566882 -0.030964188 0.08094088 0.014988183
000350 77 36 93 3c 8b 4f 12 3d 86 90 98 bd 4a 0d f0 bd
       0.017970307 0.03572039 -0.07449441 -0.11721285
000360 c2 12 32 bd bb 82 e6 bd 3a 06 54 bd ee be 93 3c
       -0.04347492 -0.112554036 -0.05176375 0.018035378
000370 47 9b c6 bd 12 96 83 bd 49 52 a6 bc f4 83 83 bc
       -0.096975856 -0.06425108 -0.020302908 -0.016054131
000380 c1 6b 82 bd 9b a1 da b9 ad f8 e1 bc 6d 6f 11 3d
       -0.06368209 -0.00041700606 -0.027584398 0.035506655
000390 0e c9 0f 3c 11 39 6a bd 4f 3f 38 bd 66 d1 96 bb
       0.0087759625 -0.05718333 -0.04498225 -0.004602599
0003a0 a6 85 aa bd 48 f7 03 3c 14 1d e4 bb 5e db 38 3d
       -0.08326273 0.008054562 -0.006961474 0.04513108
0003b0 b5 24 da 3c 84 dc b2 3d ec 6e ec bb 2e d7 c1 bd
       0.026628831 0.08733466 -0.0072153714 -0.094648704
0003c0 78 5e 5d 3d 24 8a ba bd 93 3c 77 bc 4f b0 11 bd
       0.05404517 -0.091083795 -0.015090126 -0.03556853
0003d0 51 f1 09 bd ec 66 3b bd 4d 19 ed 3d 8a 26 9a 3d
       -0.033677403 -0.04575245 0.11577091 0.07526882
0003e0 56 55 2b 3d 4f 7f 09 3e 4b 58 e9 bd 73 ac b0 3c
       0.04182943 0.1342747 -0.11393794 0.021566605
0003f0 1e a6 a4 3d 48 da a8 3d e7 58 d9 bd 90 e7 44 3d
       0.08039497 0.08244759 -0.1061266 0.048072398

conv_layers.1.0.bias f4 [32]
000000 9a 17 41 3d 18 83 d4 3d 83 ec 14 bd f2 f5 d3 3d
       0.04714165 0.10376567 -0.036358368 0.10349645
000010 bf 21 3b bd 94 bf a2 bd af 99 50 bd b7 36 01 3c
       -0.04568648 -0.07946697 -0.050927814 0.00788658
000020 5c 6a a0 bc a2 ad 80 3d eb 3b 84 bd e7 de 0f bd
       -0.019581966 0.06283118 -0.06456741 -0.035124686
000030 df ba ed bd a1 d0 c8 3d 51 f6 a4 bc 35 46 cd bd
       -0.116079085 0.09805418 -0.020136984 -0.100231566
000040 f7 04 20 bc f2 f9 18 bb 19 94 1a 3d ba de 98 bc
       -0.009766809 -0.0023342338 0.037738893 -0.018660892
000050 10 e8 a7 3d 0b 30 29 bd f5 b6 05 bd bf b2 04 bd
       0.08198559 -0.041305583 -0.032645185 -0.032397028
000060 e4 fb 6e 3c 65 ae d1 3d a7 e2 6d bc f9 6b be 3d
       0.014586423 0.10238341 -0.01451937 0.09297938
000070 5f 8c c1 3d 1a f8 65 bd 53 19 93 bc 74 24 5a bd
       0.09450602 -0.05614481 -0.017956411 -0.05325742

conv_layers.1.2.weight f4 [32]
000000 4a 8a 81 3f ef a3 7f 3f 6c 01 80 3f 09 56 80 3f
       1.0120327 0.9985952 1.0000434 1.0026256
000010 e6 27 81 3f d7 52 80 3f ef 09 80 3f fe 21 7f 3f
       1.0090301 1.0025281 1.0003031 0.9966124
000020 a3 6e 7e 3f 7b 0a 81 3f f5 8e 80 3f 68 47 7e 3f
       0.9938757 1.0081323 1.0043627 0.9932771
000030 43 cd 7d 3f 8f a8 81 3f ac 53 7d 3f 78 6f 80 3f
       0.9914133 1.0129565 0.989558 1.0034018
000040 40 0b 7f 3f 45 25 80 3f f7 5e 7d 3f 92 1f 80 3f
       0.9962654 1.0011374 0.9897303 1.0009634
000050 48 b2 80 3f 9f b5 80 3f d1 28 7e 3f 9e 37 80 3f
       1.0054407 1.0055426 0.9928103 1.0016973
000060 81 fb 7e 3f 36 17 7e 3f 29 6b 81 3f 97 93 7e 3f
       0.99602515 0.9925417 1.0110828 0.99443954
000070 60 d8 7e 3f 8e ba 80 3f 3d 42 7f 3f 4e 2c 80 3f
       0.9954891 1.0056932 0.99710447 1.0013521

conv_layers.1.2.bias f4 [32]
000000 b8 52 37 bb b0 34 ac 3a c0 8c 8a b9 70 4d b9 3b
       -0.0027972888 0.0013138261 -0.00026426278 0.005654983
000010 08 bd 3d bb 73 7a f9 ba 79 45 05 3b b5 3e 0d 39
       -0.0028951783 -0.0019033685 0.0020335598 0.00013470168
000020 cb 80 0c bc da 19 d6 ba ff 0a ce bb e0 2e d4 bb
       -0.0085756285 -0.0016334609 -0.006287932 -0.0064753145
000030 ee 79 0a 3b c2 2a 05 3c 4a 8c 01 bc 94 7a ce bb
       0.0021129805 0.00812787 -0.007906983 -0.0063012335
000040 d9 1d 69 bb 56 13 7d 3a 6b 07 3c 3b bd 53 d3 3a
       -0.003557077 0.00096540654 0.0028690945 0.0016122978
000050 90 06 1e bc 44 f8 e2 bb 20 3b 97 bb 58 08 44 bc
       -0.009645119 -0.006926568 -0.0046152025 -0.01196488
000060 3c 49 c4 39 a3 2a 02 3b 5d 4b e3 ba a8 e8 e4 b9
       0.00037438597 0.001986184 -0.0017341186 -0.0004366089
000070 85 42 1c 3c 2f 73 95 3b 8e 96 26 ba f1 76 47 bb
       0.009537344 0.00456085 -0.0006354832 -0.0030435885

conv_layers.1.2.running_mean f4 [32]
000000 24 1b 3f 3e a1 10 5f 3e ec 04 bb 3d ce 6b 7b 3e
       0.18662697 0.21783687 0.09131798 0.24552843
000010 95 1b 05 3e a9 81 13 3e c4 08 ca 3d 01 cc 19 3e
       0.12998803 0.1440493 0.09864953 0.15019228
000020 f6 54 fe 3d d0 2e 1f 3e bd 3c a9 3d 23 90 0f 3e
       0.12418549 0.15545201 0.08263538 0.14019828
000030 b6 75 af 3d 3e 94 80 3e 83 0e f3 3d 4d bc 31 3e
       0.085673735 0.251131 0.11868002 0.17356987
000040 ce 2e 47 3e 30 05 34 3e f6 19 3a 3e 2f c6 1c 3e
       0.19451448 0.17580104 0.18173966 0.15309976
000050 9b 99 31 3e 58 24 03 3e d5 25 18 3e c3 04 1f 3e
       0.17343752 0.12806833 0.14858182 0.1552916
000060 bc 1c 3f 3e cf d0 73 3e f4 50 09 3e ba a5 4a 3e
       0.18663305 0.23810123 0.13409787 0.19789782
000070 fd 2f 5d 3e f6 a0 df 3d 71 26 01 3e 45 fb 65 3d
       0.21600337 0.10919373 0.1261232 0.056147832

conv_layers.1.2.running_var f4 [32]
000000 74 15 27 3e 43 b9 0f 3e e6 72 80 3d ad 0f f5 3d
       0.16316777 0.14035515 0.06271915 0.119658805
000010 1d 83 ba 3d 3a 67 d1 3d 6f 51 90 3d e7 59 0d 3e
       0.09107039 0.10224767 0.07046782 0.13803826
000020 a1 25 97 3d 3f 56 e8 3d 6a 1f 81 3d c2 5e f1 3d
       0.07380224 0.11344575 0.0630482 0.11785652
000030 cc 41 9b 3d ec b2 1b 3e 8a 14 97 3d 76 0c 12 3e
       0.07580909 0.15204972 0.073769644 0.14262566
000040 21 f1 15 3e 95 b0 be 3d ae 9c 30 3e aa c3 88 3d
       0.14642765 0.09311024 0.17247269 0.06677945
000050 7a 31 18 3e e4 98 cf 3d 2a ce aa 3d d7 d0 a1 3d
       0.14862624 0.101365834 0.08340104 0.07901161
000060 d4 0d 03 3e 60 8d ec 3d 52 62 e6 3d f0 b6 92 3d
       0.12798244 0.11550403 0.11249222 0.07163799
000070 23 4e 1a 3e c1 14 c6 3d 3f c4 b9 3d 58 48 38 3d
       0.1506887 0.09671927 0.09070634 0.044990867

conv_layers.2.0.weight f4 [32, 12, 7]
000000 03 51 51 3d 0b 77 18 bd b7 86 36 3d 8c e7 4c 3c
       0.05110265 -0.037222903 0.044562068 0.012506377
000010 ba e0 91 bd 2f d0 95 bd 98 33 d7 bd 1d e8 77 bd
       -0.07122941 -0.073150985 -0.105078876 -0.060524095
000020 41 da 06 3d 8c 33 b8 3c 99 6e bf 3d 4e ba be bd
       0.032922987 0.022485517 0.09347267 -0.093128785
000030 2e 08 3a 3b 19 b5 b8 bd 54 90 e2 ba 56 d0 3b 3d
       0.0028386223 -0.09018917 -0.0017285445 0.04585298
000040 28 a2 d4 bd 35 d2 cc 3d 2d a8 e3 bc e0 54 d1 3d
       -0.10382491 0.10001031 -0.027790153 0.10221267
000050 0d af 7e bc e8 6e 68 3d 8a 55 c2 3d 64 2c 5e bd
       -0.015544665 0.056746393 0.094889715 -0.054241553
000060 b0 ba 1b bd fe 33 69 3d af 00 c2 bd 92 7c 7a 3d
       -0.038019836 0.05693435 -0.09472787 0.061153956
000070 56 4d 94 bd 39 36 d4 3d d5 1f 92 bd c7 9f 22 bd
       -0.07241313 0.10361905 -0.07134978 -0.039703157
000080 bb 49 b6 3d 22 ee 25 bd b2 bc c9 3d 12 73 a1 3d
       0.08900782 -0.040510304 0.09850444 0.07883276
000090 9c b0 cb 3d 86 b8 c7 bd d0 d0 7d 3b 66 3a 1a bd
       0.09945795 -0.09751992 0.0038729198 -0.03765335
0000a0 da 29 c7 3c 1b ec ad bd 2b 84 17 3d 24 62 cb ba
       0.024311949 -0.08492299 0.03699128 -0.0015516919
0000b0 b0 ac 4d bd b7 de c0 bd 73 d7 82 3d 17 be 19 bd
       -0.050213516 -0.094174795 0.0638875 -0.0375348
0000c0 32 ec a3 3d ca dc 31 3c 4c ce 0c 3d c2 71 36 bc
       0.08004035 0.010855863 0.034376428 -0.01113552
0000d0 6b 2a 0b bc 99 0d bd bc c0 85 af bd fa 88 87 3d
       -0.008494 -0.023077773 -0.08570433 0.06617923
0000e0 ae f5 98 bd 15 37 8b 3d 57 63 06 bd ac c1 95 3d
       -0.07468735 0.067976154 -0.03280958 0.073123306
0000f0 24 39 cf 3d 73 3e 66 bd 5f 3d b2 3d ca f8 38 bb
       0.101183206 -0.0562119 0.08703112 -0.0028224462
000100 6b 0b a8 bd f5 21 4d 3d c5 19 8b 3d 88 08 c7 3d
       -0.08205303 0.050081212 0.067920245 0.09718424
000110 a5 3c b9 bd 1b 02 c8 3d a2 3e a1 3d 85 8d e0 3d
       -0.0904477 0.097660266 0.078732744 0.10964493
000120 d1 6f 92 3d 4e cc 3b bd 2f 17 ab 3d f7 ae d2 3d
       0.071502335 -0.045849137 0.08354031 0.10287278
000130 bf 65 41 bd 6b c6 c4 bc ce 0a a9 3d 7b 0b c6 3d
       -0.047216173 -0.024020394 0.08254014 0.096701585
000140 09 91 98 3d ba d6 a6 3d e1 fb 68 bd 12 8d d8 bc
       0.07449538 0.081464246 -0.056880835 -0.026434455
000150 f0 e6 43 bd ba d0 7f 3d 54 f2 d8 3c b8 f6 b6 bd
       -0.04782766 0.062454917 0.026482739 -0.089337766
000160 60 35 26 bc e8 ce c6 bd 51 ce d1 bd dc ad d0 3d
       -0.0101445615 -0.09707433 -0.1024443 0.10189411
000170 34 5a 45 bd a1 8f 6b 3d 4e 02 e8 bc b4 fa 19 bd
       -0.048181728 0.057510022 -0.028321411 -0.037592605
000180 9c 17 6b bc 52 2b ab 3d e8 68 3c ba 8b 28 b2 3d
       -0.014348891 0.08357872 -0.0007187263 0.08699139
000190 99 c9 8d 3d 80 6e 91 3d 44 56 e8 bd 66 c5 57 bd
       0.06923217 0.07101154 -0.11344579 -0.05267849
0001a0 27 b9 be bd 5d c9 c2 bc f5 56 f4 bc 49 f9 a3 3c
       -0.09312659 -0.023777658 -0.02982662 0.02001633
0001b0 7a 10 d6 3d a5 d1 55 3d 82 dc 85 bd b4 81 8c bd
       0.104523614 0.052201886 -0.06536199 -0.068606764
0001c0 15 49 b3 3d ef e7 1a 3c da d6 13 3d c1 84 82 bd
       0.08754174 0.009454711 0.03609357 -0.06372977
0001d0 e8 58 f4 bc dc 58 9e 3c 73 60 a7 bd 2a de 7d 3d
       -0.02982755 0.01932948 -0.08172693 0.06197945
0001e0 9d e2 74 3d 39 a5 85 bd 00 4f 34 bd 05 64 82 bc
       0.059786428 -0.06525654 -0.044020653 -0.015916834
0001f0 f0 43 47 3c 5d 2f 1f bd 96 31 db 3d e8 df de bd
       0.012162194 -0.03886353 0.10702817 -0.108825505
000200 f1 b2 8e bd b3 f1 87 bd 30 f4 07 3d 72 e7 e1 3c
       -0.06967724 -0.06637897 0.03319186 0.027576182
000210 1f 47 8a bc 3e 66 b6 3d 71 8d c0 bd 2c c7 11 3d
       -0.016879616 0.0890622 -0.09401978 0.035590336
000220 cf e5 57 bd 7c 36 ae bc 4a 9d cb bd 36 30 80 bd
       -0.052709397 -0.021266215 -0.0994211 -0.062591955
000230 87 21 ca bd d4 e6 51 3d 06 1c 39 bd f8 aa 7b 3d
       -0.09869676 0.051245525 -0.04519274 0.061442345
000240 3f 6f 63 bd 65 e6 de bc dd 20 01 3d 9a dd b6 3d
       -0.055526014 -0.02720947 0.03152548 0.08928986
000250 63 7c d0 bc 9b 6e 66 3d 8e 9b de 3c 6c 29 7f 3d
       -0.025449937 0.056257825 0.027173784 0.062295362
000260 85 89 7a 3d 0e b5 74 3d 1a be 04 bd 95 ad bb bc
       0.061166305 0.05974298 -0.032407857 -0.022909919
000270 e4 90 2e 3d 49 1a 6d 3d 6d 70 62 bc 6b 62 2e 3d
       0.042618647 0.057886396 -0.01382075 0.042574327
000280 7b 42 83 bd de 1f 86 3d 41 81 04 bc 4a 5a 92 bd
       -0.064091645 0.06549047 -0.008087457 -0.071461275
000290 34 5e 60 bd d6 b9 a8 bd 12 90 5f 3c 3b e3 85 bd
       -0.05477734 -0.082385704 0.013645189 -0.065374814
0002a0 2b 0d 01 bd fe eb db bb e8 c2 99 bd 8e 63 b5 bb
       -0.0315067 -0.006711482 -0.075078785 -0.0055355495
0002b0 d3 e6 89 bc 1d 49 dc 3c 26 52 98 3d 5e 4b 9c bd
       -0.016833698 0.026890332 0.074375436 -0.07631563
0002c0 64 53 5e 3d 6b dc 81 bc 31 8f 92 bd 41 8f 46 bd
       0.054278746 -0.015852174 -0.07156218 -0.04847646
0002d0 90 c9 d1 3c 87 10 b6 3c 46 4f 41 bc 24 65 75 bd
       0.025608808 0.022224678 -0.011798685 -0.05991091
0002e0 e4 78 3b 3d 16 b6 51 3c a2 20 d8 bd e2 93 38 bc
       0.045769587 0.01279976 -0.10553099 -0.011265727
0002f0 12 9d e8 bc 44 bc 1f bd 97 c2 62 bd 5d 77 9a bd
       -0.02839521 -0.038997903 -0.055361357 -0.07542298
000300 99 cc ef 3d fe 00 c4 bd 10 f8 d7 3d d7 4d ae bd
       0.11708946 -0.09570502 0.10545361 -0.085109405
000310 1f 1b 1c bd c8 e3 4c bd fb 36 8f bd a5 d2 01 3d
       -0.038111802 -0.050021917 -0.069929086 0.031695027
000320 a3 87 7c 3d af 66 94 bd 12 e0 52 bd c9 34 76 3d
       0.06165279 -0.07246148 -0.05148322 0.060108934
000330 ed 29 fb bb 5d 4f ee 3c e0 28 5b 3d 2c 52 2c bd
       -0.00766491 0.029090578 0.05350578 -0.042070553
000340 32 f9 8d bd 4d 1f 21 3d c1 c7 24 bd 31 7b 89 bd
       -0.06932296 0.03933649 -0.040229563 -0.0671295
000350 f9 7d 35 bd ee 17 2c bd 3d be e6 3d e2 84 ad 3c
       -0.04430959 -0.04201501 0.11266754 0.021181528
000360 4b 09 24 3d 4c b6 8f 3c 78 85 84 bd 01 ee b1 3d
       0.040047925 0.01754298 -0.0647077 0.08687974
000370 94 82 2c bc 23 a4 cc bc e6 88 ae 3d 61 3f 8a bd
       -0.010529179 -0.02498061 0.08522205 -0.0675037
000380 2e d8 88 3c ba 22 b4 bd a6 80 74 3d d5 b9 51 3d
       0.016704645 -0.08795686 0.059693 0.051202614
000390 e7 77 bb bd 7a 6a 74 3d b9 d3 28 3c d8 2f 76 bd
       -0.09153729 0.059671856 0.010304385 -0.06010422
0003a0 56 59 b3 3d 18 6a 14 3d 13 e4 3a 3d fe 25 22 bd
       0.08757274 0.03623399 0.045627665 -0.039587013
0003b0 ed 33 7d bd 79 60 5f bd 78 97 1f 3d ce 1e b9 3c
       -0.0618171 -0.054535363 0.03896281 0.022597697
0003c0 8c c3 9b bd 92 7e ce 3d 45 92 86 3d 36 eb 32 bd
       -0.07605657 0.10082735 0.065708674 -0.043681346
0003d0 c8 dc 7b 3d 6f 5c 5d bd 2b 1b e2 3c 79 37 9c 3d
       0.06148985 -0.05404323 0.027600845 0.07627768
0003e0 f8 bf c4 bd f7 95 54 bd 44 f7 3e bc 5e 28 87 3c
       -0.09606928 -0.05190083 -0.011655632 0.01649874
0003f0 6a 3e 96 bd e2 db 80 bd 72 b8 32 bc 53 5b 5c bc
       -0.07336123 -0.06291939 -0.010908233 -0.013449508

conv_layers.2.0.bias f4 [32]
000000 e1 de 54 3d 46 6c bd 3d 08 ee 03 3c 04 15 c1 bc
       0.051970366 0.09249167 0.008052357 -0.023569591
000010 7f 11 d3 bc 58 1b 13 bd a5 29 64 3d ee 0b e5 bd
       -0.025765179 -0.03591475 0.055703778 -0.11183916
000020 5f 9f c5 3d cc 5a b7 bb 3d da 86 bd 6c c6 36 bd
       0.09649538 -0.0055955406 -0.065845944 -0.044622824
000030 02 bd 99 bd 2d e7 b2 bd f4 68 a4 3c 0a 44 17 bd
       -0.075067535 -0.087354995 0.020069577 -0.03693012
000040 b7 28 40 bd 6f 22 7b bc c7 52 14 bc c2 c7 3a 3d
       -0.04691383 -0.015328034 -0.009052939 0.04560066
000050 5c 71 96 bd e0 e2 be 3b 5c 92 da 3a 94 2d b6 bd
       -0.0734584 0.0058253855 0.0016675699 -0.08895412
000060 9a 27 d7 3d e3 0b 5a bd 91 e4 a4 3d ac f6 a0 3d
       0.105056 -0.053233992 0.08051408 0.07859549
000070 b7 30 19 3c 3c 04 ae 3d fc ca ab bd 1a 95 68 bc
       0.009349993 0.084969014 -0.083883256 -0.014195705

conv_layers.2.2.weight f4 [32]
000000 be 08 80 3f 02 1a 80 3f 95 c2 7d 3f 28 05 7e 3f
       1.0002668 1.0007937 0.99125034 0.9922662
000010 7e f1 80 3f ff 2d 7f 3f d5 2b 7f 3f 02 e1 7f 3f
       1.0073698 0.9967956 0.9967626 0.9995271
000020 71 43 7f 3f 61 2e 80 3f 7e 6a 7f 3f d3 c1 7d 3f
       0.9971228 1.0014154 0.9977187 0.9912388
000030 46 38 80 3f b8 02 80 3f b1 0e 7f 3f c8 69 80 3f
       1.0017173 1.000083 0.9963179 1.0032282
000040 af ac 7f 3f d4 da 7d 3f 21 90 7f 3f 28 5d 80 3f
       0.9987287 0.9916203 0.998293 1.0028429
000050 d5 f7 7d 3f b2 f8 80 3f bd 2f 80 3f bb 50 7e 3f
       0.99206287 1.0075896 1.0014569 0.99341935
000060 f1 be 80 3f cd 6e 7d 3f 3f b1 81 3f 19 d5 80 3f
       1.0058271 0.98997194 1.0132216 1.0065032
000070 25 0b 80 3f 25 5c 7e 3f 47 d1 7f 3f 54 1d 7c 3f
       1.0003401 0.9935935 0.99928707 0.9848225

conv_layers.2.2.bias f4 [32]
000000 5b 0c 8b 3a 51 aa 2e bc 3c f1 67 bb b7 cb 13 bb
       0.0010608541 -0.010660724 -0.003539159 -0.0022551843
000010 f8 17 f2 b8 0e 95 50 bc 53 c1 ab bb 8d fb 81 bb
       -0.00011543924 -0.01273085 -0.005241552 -0.003966755
000020 4c 22 b2 bb 13 7e 8b 3b ae 9b 06 bc 30 27 89 bb
       -0.0054362174 0.0042569726 -0.008215828 -0.0041855797
000030 4d 67 4b bb 54 1a 88 bb d3 2e 84 3b f2 c1 23 b9
       -0.0031036914 -0.004153529 0.004033902 -0.00015617142
000040 91 f9 c5 ba a9 31 43 3c 96 fe 1c 3b 1d 3f ac bb
       -0.0015104284 0.011913695 0.0023955456 -0.005256547
000050 02 82 47 bb f9 41 1d 3a 6d 64 3c 3b 7e c7 9e 3b
       -0.003044248 0.00059989054 0.0028746382 0.0048455587
000060 09 88 28 3c ad eb 0a bc fa cc b7 bb de 64 da ba
       0.01028634 -0.008479041 -0.005609152 -0.0016662141
000070 68 b5 ba 3a c7 66 e8 bb 74 04 62 ba 12 a0 1a 3b
       0.0014244737 -0.00709233 -0.00086218794 0.0023593944

conv_layers.2.2.running_mean f4 [32]
000000 a1 de 61 3e d6 00 50 3e 1c b9 ea 3d 46 98 19 3e
       0.22057582 0.20312819 0.11461088 0.14999494
000010 10 91 1f 3e 0c c4 4a 3e e9 4a 3a 3e 1b b3 3c 3e
       0.1558268 0.19801348 0.18192638 0.18427698
000020 45 e4 5b 3e ba 2b 04 3e 6d d9 e9 3d b0 20 fb 3d
       0.21473797 0.12907305 0.11418424 0.12262094
000030 0e f4 f8 3d 22 3d b1 3d fc a7 21 3e bf c5 19 3e
       0.12155925 0.08654238 0.15786737 0.1501684
000040 d5 37 1c 3e b4 0d 04 3e c6 7a 30 3e 4b b6 16 3e
       0.15255673 0.12895852 0.17234334 0.14717977
000050 d5 f2 ee 3d 83 9f 24 3e 52 f7 16 3e 7a f5 00 3e
       0.1166741 0.16076474 0.14742783 0.12593642
000060 4a 8c 4b 3e 5e a9 0c 3e f0 85 56 3e fe 27 31 3e
       0.19877735 0.13736483 0.2094953 0.17300412
000070 2e d2 20 3e c3 46 4b 3e 40 76 d0 3d 43 48 35 3e
       0.15705177 0.19851212 0.101788044 0.17703347

conv_layers.2.2.running_var f4 [32]
000000 89 0f 1d 3e 8c 31 d9 3d ea 3b 90 3d 8b f9 f8 3d
       0.15337957 0.106051534 0.07042678 0.121569715
000010 90 28 61 3e c1 e9 2e 3e 24 7f d7 3d 76 cd 0f 3e
       0.2198813 0.17081358 0.10522297 0.14043221
000020 4c 33 cc 3d 78 50 77 3d d0 36 96 3d 73 2b ea 3d
       0.099707216 0.060379475 0.073346734 0.114340685
000030 0c 9a c1 3d 64 1c 8b 3d d2 be 00 3e ca dc d9 3d
       0.0945321 0.067925245 0.12572792 0.10637815
000040 e4 13 ae 3d d0 34 c9 3d 4f b9 02 3e 42 a2 8e 3d
       0.084998876 0.09824526 0.12766002 0.06964542
000050 64 40 cc 3d 3f a0 a4 3d 82 f5 b8 3d 86 2e d0 3d
       0.09973219 0.08038377 0.09031202 0.10165124
000060 34 c8 02 3e 84 d9 93 3d a8 26 da 3d c7 cb a8 3d
       0.12771684 0.07219222 0.10651904 0.082419924
000070 5a 5c e1 3d fc e2 0f 3e c6 f5 b8 3d 66 83 17 3e
       0.11003943 0.14051431 0.090312526 0.14796218

plrnn1.cells.0.W_ih.weight f4 [64, 96]
000000 70 32 9f bd 71 d2 64 3d d9 0e 00 3e 84 6e 1b 3d
       -0.07773292 0.055864755 0.12505664 0.037947193
000010 35 2d 1e 3c 5d 6a bb 3d 99 ad eb 3d ee 44 f8 ba
       0.009654333 0.091511466 0.115077205 -0.0018941441
000020 b2 f2 0b be 30 2c 33 be c6 ac 46 3e f9 2b 83 3d
       -0.136668 -0.17497325 0.19401845 0.064048715
000030 63 98 34 3e 3f 1b 98 bd 6b d6 71 3d 8a 1d c0 bd
       0.17636256 -0.07427072 0.059042376 -0.09380634
000040 8b 26 c1 bd f5 45 aa bd a6 db 43 3e a3 be 1b 3e
       -0.094311796 -0.083141245 0.19126758 0.15209441
000050 54 fc f2 bd da 1a 02 be d9 cc 6c 3d 1b a6 1d bd
       -0.11864534 -0.12705556 0.057812545 -0.03848849
000060 63 05 84 3c cb 99 f3 3c 13 11 2b be 49 c5 37 3d
       0.01611585 0.02973642 -0.16705732 0.04486588
000070 26 db 95 bb 3e 34 0b be 3f da 46 be 08 33 d1 3d
       -0.0045732437 -0.13594148 -0.19419192 0.102148116
000080 37 f7 32 be 6f 74 b6 bd 1b 47 fa 3d d5 fe f0 bd
       -0.17477117 -0.08908927 0.122205935 -0.11767355
000090 6f 77 c3 bd 30 6d f3 bd b4 7e f6 3d a4 3a 86 3d
       -0.095442645 -0.1188606 0.120358855 0.065541536
0000a0 a7 68 be 3c 16 b3 94 3d 7a 88 7f 3d d0 73 28 bd
       0.023243262 0.072607204 0.062386014 -0.041126072
0000b0 bf ee b6 ba 20 15 ea bd 6d d2 bf bd b2 39 36 3b
       -0.001395665 -0.114298105 -0.093663074 0.0027805385
0000c0 1d 6a 4f bc bf a6 37 3d 74 5d b3 3d d4 85 18 3e
       -0.012659577 0.044836756 0.08758059 0.14894801
0000d0 d6 03 3f 3e f0 c4 30 bc 6f d0 96 3d 3d 6a 25 be
       0.18653807 -0.010789141 0.07363974 -0.16153808
0000e0 d6 59 e7 3d 76 29 41 bd 26 fd 24 be ff 92 19 be
       0.11296432 -0.04715868 -0.16112193 -0.14997481
0000f0 16 33 25 be ae 42 b2 bd 84 f4 91 3d 23 bb 1a be
       -0.16132769 -0.087041244 0.07126716 -0.1511045
000100 0a 49 c0 bc 67 9e df bc 7e 12 a1 3d dc ab b7 bd
       -0.023472328 -0.027297212 0.07864855 -0.089683264
000110 9e 82 cb 3d fd 9e 00 be 5d d7 fb 3d 52 a7 48 be
       0.099370226 -0.12560649 0.12296937 -0.19595078
000120 09 2c 09 be 93 5d 91 3d a1 67 1d 3d 22 8e 0b 3e
       -0.13395704 0.07097926 0.038428906 0.13628438
000130 df 31 d1 3d 65 d0 20 be b5 b1 1c 3e 27 67 15 bd
       0.1021459 -0.15704496 0.15302165 -0.036475327
000140 fb 55 eb bc 87 e4 ae bd d0 50 db bc 70 73 35 be
       -0.028727522 -0.08539682 -0.026771933 -0.17719817
000150 9c f1 ae 3c 2d 81 0b 3e 7e 38 42 bd a9 67 23 3e
       0.021355443 0.13623495 -0.047417156 0.15957512
000160 ee 68 b5 bd 98 dd 9f 3d d3 a7 4c 3c af b7 a0 bd
       -0.088579044 0.078059375 0.012491184 -0.07847535
000170 31 03 4d 3e 9a 2f de 3b 51 37 7a 3c 6e 5e 9a bc
       0.20020749 0.006780577 0.0152719775 -0.018843856
000180 cc b1 55 bc f9 14 1f 3e 86 a2 00 bd d1 fa ef 3d
       -0.013042878 0.15535344 -0.031404994 0.11717761
000190 1a 2f 85 3d 2b 0d f0 3d 25 83 0f be 91 e7 38 be
       0.065031245 0.117212616 -0.14014871 -0.18057086
0001a0 16 14 81 bd 3d 29 79 bd dc 56 45 3e f1 79 3a 3e
       -0.06302659 -0.060830344 0.19271415 0.1821058
0001b0 0c f0 34 bd c6 36 c4 bd 72 ad 0f bb 17 a2 94 3d
       -0.04417424 -0.0958076 -0.002192345 0.07257479
0001c0 cb b6 84 3d 74 23 0c 3d 62 a4 0d 3e d1 65 f3 3c
       0.064801775 0.0342135 0.13832238 0.029711636
0001d0 e3 c7 21 3e da 40 3a 3d bb ed 46 bc 44 23 2d 3e
       0.15798907 0.045472004 -0.01214164 0.16907984
0001e0 ac fe 0f 3c 68 92 6c b8 5e a3 24 bd c4 eb dd 3d
       0.008788746 -5.6403136e-05 -0.04019486 0.10835984
0001f0 9c fc 5f bd f7 f5 1c 3e ad 33 d0 3d 90 2f f6 bb
       -0.054684266 0.15328203 0.101661064 -0.007512994
000200 3a f8 e8 bc 95 9a 98 3d 9c 98 40 be b3 fb 76 bd
       -0.028438676 0.07451359 -0.18808216 -0.060298633
000210 01 cd 93 bd 56 df 69 bc fe 66 b8 bd 7d 1a b0 bd
       -0.07216836 -0.014274439 -0.09004019 -0.08598802
000220 03 d5 c4 3d 75 a9 d4 bc e1 d5 05 be 74 9b 98 bc
       0.09610941 -0.02595971 -0.1306987 -0.018628813
000230 ed cc 91 3d c1 5e 9f bd 23 99 25 3e 83 fd 0f be
       0.071191646 -0.07781745 0.16171698 -0.14061551
000240 32 05 2e 3e 2f a6 8e 3d cf d3 f8 bd c9 7b 37 be
       0.1699417 0.06965291 -0.12149774 -0.17918314
000250 29 2a 85 3d 1e 46 f4 bc 2d 28 51 3d 4c c9 af 3d
       0.06502182 -0.02981859 0.051063705 0.08583316
000260 57 17 0d be bf 76 bf 3c 50 10 44 bd b1 39 31 be
       -0.13778435 0.023372052 -0.04786712 -0.17307164
000270 5f 19 ce 3c 05 49 2c 3d 88 6e 1e be 7b 4c 38 3e
       0.025158582 0.042061824 -0.15471852 0.17997925
000280 25 19 bf 3d 7c 43 f0 3d 6d 41 2e be 9c 91 34 be
       0.09330968 0.117316216 -0.17017145 -0.1763367
000290 e6 0c aa 3d 41 d6 d5 3d 50 c3 1f be e4 d7 3e 3e
       0.083032414 0.10441256 -0.1560185 0.18637043
0002a0 89 37 47 bd c2 e5 24 be db 84 12 be 2e 95 5c bd
       -0.048636947 -0.1610327 -0.14308493 -0.053853206
0002b0 22 8d c6 3d 2c de 0d be c2 ce 0a 3e da ae 48 3e
       0.09694888 -0.13854283 0.13555434 0.1959795
0002c0 00 68 3f 3e db 63 9c 3d 30 85 8b bd 04 63 a3 bd
       0.18692017 0.076362334 -0.06812513 -0.0797787
0002d0 17 7f 0e 3e 8c 83 41 bd 75 b9 b4 3c fd 26 40 3e
       0.13915668 -0.047244594 0.022061089 0.18764873
0002e0 86 93 47 be d1 7b 5d bd c9 3e 9f bd 6a 24 1b bd
       -0.1948987 -0.05407316 -0.07775647 -0.037876524
0002f0 fd c2 da 3b 5c 2f 65 bd 63 e0 3a 3e 8b 32 9d 3d
       0.0066760764 -0.05595337 0.18249659 0.07675656
000300 0a 32 08 be 38 5a 38 3e 04 55 7b bd da c5 b0 3c
       -0.13300338 0.18003166 -0.061360374 0.021578718
000310 36 46 46 3c 6d bc 16 be 2d c6 bc 3d 20 10 ec bd
       0.0121017005 -0.14720316 0.092174865 -0.11526513
000320 13 db 2c be 17 76 28 3e 76 3d e1 3d 41 d9 ab bd
       -0.16880445 0.16451298 0.10998051 -0.08391047
000330 8b f5 18 be 02 60 30 3e d9 de 6f 3d d6 64 04 be
       -0.14937417 0.17224124 0.058562133 -0.12929091
000340 5e d9 2d be 37 71 b4 bd e6 2a ed bd 25 f9 a9 bb
       -0.1697745 -0.088106565 -0.11580448 -0.005187171
000350 5b b5 2e 3c 4c ac 4b be 3d 48 c6 3d 5f 44 c3 3d
       0.010663356 -0.19889945 0.09681747 0.09534525
000360 88 fa 32 be 3d 4c 17 3e 71 2d a1 bd a2 b1 bf 3d
       -0.17478383 0.14775176 -0.078699954 0.09360053
000370 b6 70 3d 3e 42 17 f6 3d 05 9e 07 3e 8e a2 ac 38
       0.18500027 0.12016155 0.13243873 8.231877e-05
000380 76 18 f2 3c 66 9b 20 be aa 21 17 be 80 a8 1a 3e
       0.02955268 -0.1568428 -0.14758936 0.1510334
000390 94 60 3a be 39 83 94 3d 23 08 f1 bd ed 64 26 3e
       -0.18200904 0.07251591 -0.1176913 0.16249438
0003a0 6d 3a 15 3e 18 82 50 bd cc b4 da bc aa 99 11 be
       0.14573069 -0.050905317 -0.026697539 -0.14218774
0003b0 5e 15 34 3e 8a e1 02 be 84 92 8f 3d 57 ac 0c 3e
       0.17586276 -0.12781349 0.070103675 0.13737617
0003c0 00 42 43 be 27 f0 3f be cb bb 06 be d2 1d f5 bc
       -0.19068146 -0.18743955 -0.13157575 -0.029921446
0003d0 15 dc eb 3d e3 35 86 bd 57 ce a1 bd d9 42 ff 3d
       0.11516587 -0.06553247 -0.07900684 0.12463922
0003e0 52 9d 1b 3e d6 05 d2 3d a7 05 28 3e d6 d7 37 be
       0.15196732 0.10255019 0.16408406 -0.17953429
0003f0 d4 d3 36 be 59 0a c6 3c f9 31 23 be ed a0 74 bd
       -0.17854244 0.024174856 -0.15937032 -0.059723783

plrnn1.cells.0.W_ih.bias f4 [64]
000000 dc e8 ad 3d 90 62 1f bd d5 55 98 bd 00 a2 96 bd
       0.0849168 -0.038912356 -0.07438246 -0.07355118
000010 e2 5a 18 bd f3 04 f4 3b 45 a8 c8 3d e2 45 c3 3c
       -0.037196048 0.007446879 0.0979772 0.023837034
000020 5e 98 69 bd fe 16 56 bc 56 a7 a4 bc 25 98 a0 3c
       -0.057030074 -0.013067005 -0.020099323 0.019603798
000030 74 ed 14 3d 51 20 86 bd 8c 77 01 3d 01 58 1d 3d
       0.036359265 -0.065491326 0.03160815 0.038414005
000040 bb 1a 0c bc 8b 18 8e bd ed 45 85 3d 9c d2 bf bd
       -0.008551295 -0.06938275 0.06507478 -0.093663424
000050 75 1d 34 3d c9 dc 74 3c fa c2 ac bc 5e c8 31 bd
       0.043973405 0.014945217 -0.021089066 -0.043403976
000060 79 f2 c0 3c 31 29 60 bd 1a 07 3e 3b d1 b1 91 3d
       0.02355312 -0.054726783 0.0028995932 0.07113994
000070 f6 73 7a bc 77 f1 8c bd 58 47 a0 3d e5 f9 90 3d
       -0.015286436 -0.06881993 0.07826108 0.070789136
000080 04 07 b3 3d 9a 1b 12 bd 11 2f ce bd cf 88 0a bd
       0.087415725 -0.035670854 -0.10067571 -0.033821877
000090 8c a6 8e 3d 14 be 1a 3d e7 0f 9d 3d 02 48 30 3d
       0.0696536 0.03777893 0.07669049 0.043037422
0000a0 47 27 cd bd e8 45 d4 bd 4e d4 8a bc 01 0f 91 bd
       -0.10017257 -0.10364896 -0.016946938 -0.0708294
0000b0 c7 4b 82 bd 85 a3 57 3c 14 2d c0 bc 6c 6a 97 3d
       -0.0636211 0.013161545 -0.023458995 0.07393345
0000c0 95 80 57 bd 89 74 2c 3d ef d0 46 bd fa 68 2d bd
       -0.05261286 0.042103324 -0.0485391 -0.04233644
0000d0 3b 71 be 3d e1 8c 95 3b b9 f6 d1 3d f2 f5 b5 bd
       0.09298941 0.004563913 0.10252137 -0.08884801
0000e0 da 5c 31 bd 0c 9a c1 bd fe 3d b3 3d e5 84 4d 3d
       -0.04330144 -0.0945321 0.087520584 0.050175566
0000f0 60 15 a0 3b 9d af bf 3d 45 85 a3 bd f3 8a 98 bd
       0.0048853606 0.093596675 -0.079844035 -0.074483775

plrnn1.cells.0.W_hh.weight f4 [64, 64]
000000 02 f3 65 be 70 2a 90 bd 74 4d 92 3d 42 9b 48 be
       -0.22455981 -0.07039344 0.07143679 -0.19590476
000010 06 5c 3d bd c9 2f 55 bd 31 85 cf bc 65 cd d7 3d
       -0.04623034 -0.052047525 -0.025332065 0.10537223
000020 94 94 58 bd 91 37 c3 bd 51 6d 14 bd 87 47 94 bc
       -0.05287607 -0.09532083 -0.036237065 -0.018100513
000030 43 fb 2f bd 28 ef 86 bd ac a3 6f 3e ac ff d0 3d
       -0.04296423 -0.06588584 0.2340228 0.102050155
000040 bf b2 00 3e 13 5c 36 bc 99 db 97 3c f5 2b 36 bd
       0.12568186 -0.011130351 0.01853733 -0.044475514
000050 2a ed b2 3d 96 67 ab bb 13 a3 a8 3e 92 e8 62 3d
       0.08736642 -0.0052308543 0.32936916 0.055397578
000060 60 4d 80 be 85 41 0f 3d fc 6e 61 bc 54 03 87 3a
       -0.25059032 0.034974594 -0.013759371 0.0010300674
000070 dc 3f 72 bd 68 a2 aa 3d 94 06 1b be 93 e3 8b 3e
       -0.059142932 0.08331758 -0.15139228 0.27322063
000080 01 00 80 bc 6c d9 30 3e 7a 04 d3 3d 98 69 00 3d
       -0.015625002 0.1727044 0.10303588 0.031350702
000090 eb ce 72 3d 0e e1 68 be 08 b5 44 3d 87 50 8f bc
       0.059279364 -0.22742102 0.048024207 -0.017494453
0000a0 fc c1 0a 3e 59 f4 84 3e d2 74 93 3d 46 ba 78 bd
       0.13550562 0.25967672 0.07200016 -0.06072452
0000b0 aa 59 b7 3d 59 bb 10 3d 97 17 07 be 03 e8 41 3d
       0.08952649 0.03533492 -0.13192593 0.047340404
0000c0 70 94 c1 3c fd 33 62 bd ff 3e b6 bd 52 23 6b 3a
       0.02363035 -0.05522536 -0.08898734 0.0008969802
0000d0 c9 64 93 3d fd f4 07 3e 22 15 dc bd 8a 95 a5 bd
       0.071969576 0.1327705 -0.10746218 -0.08085163
0000e0 53 c3 04 3d 41 17 38 bd d2 40 52 bb 83 73 b4 3e
       0.03241284 -0.04494405 -0.0032082093 0.35244378
0000f0 bf 77 69 3e 7b 49 fc 3d 29 0a 54 3b a7 cc c3 bd
       0.22799586 0.12318703 0.0032354689 -0.09560519
000100 fe 4c 80 3d d5 b1 c0 bd e2 ec 6a 3d b0 e2 bc 3d
       0.06264685 -0.09408919 0.057354815 0.09222925
000110 97 9b 09 3e f8 0d 8d bd 74 b5 a8 bd a8 15 cb bd
       0.13438259 -0.0688743 -0.082377344 -0.0991624
000120 df 24 19 be ad 86 90 3d ad 3f cf be 2a 95 cd 3d
       -0.14955471 0.07056937 -0.40478268 0.100382164
000130 c4 3f d5 be 05 db 0b 3e 28 af 3c 3e f8 58 33 3c
       -0.41650212 0.13657768 0.18426192 0.010946505
000140 dc 61 30 bd 4e 35 ae 3d 16 94 bc bd 26 70 4e 3e
       -0.043062076 0.08506261 -0.09207933 0.20159969
000150 be 94 88 bd 8b e5 1e 3d 5f 14 34 3e bd 74 2d be
       -0.06668995 0.038793128 0.17585896 -0.16939063
000160 bb 6d 9f 3d 49 65 09 3e d8 af 7f be 4c 25 53 be
       0.07784601 0.13417543 -0.24969423 -0.20619696
000170 18 f0 e6 bb d8 24 9e bc 42 4d f0 3c 00 a5 07 3e
       -0.0070476644 -0.019304678 0.029333714 0.13246536
000180 41 f9 94 bd 61 06 8c bd f2 09 d6 bd ce 5c 47 bc
       -0.07274104 -0.06837154 -0.10451116 -0.012168122
000190 1a 4c ff 3b 42 f5 60 bc 29 a5 de bc 4d e9 81 bd
       0.0077910544 -0.013730349 -0.027178364 -0.06343327
0001a0 67 f8 ea bd b2 a3 99 bd 76 dc ba bb 95 91 9a bc
       -0.1147316 -0.075019255 -0.0057025505 -0.018868247
0001b0 88 44 1d bd 5e ca 1f be 23 d0 90 3c e1 14 30 3d
       -0.038395435 -0.1560454 0.017677372 0.04298866
0001c0 64 ed fa 3c 52 d1 2f be 33 e6 ca 3d 98 d2 6a 3d
       0.030630775 -0.17169693 0.09907188 0.057329744
0001d0 13 b6 31 be 40 9e 1c 3e f3 49 a8 3d fd 89 87 3d
       -0.17354612 0.15294743 0.0821723 0.06618116
0001e0 5d 1d 76 3b 9b 16 b6 3d e8 9a 2d bc c2 b5 cb bd
       0.0037554123 0.088910304 -0.010596015 -0.09946777
0001f0 78 ab 98 3d 5b 6d f7 3d 09 40 9d bc af 24 4a 3d
       0.0745458 0.12081405 -0.019195573 0.04935139
000200 8b eb 9d bd 1d 7d 07 be 88 16 1f 3d 89 68 08 bd
       -0.07710942 -0.1323132 0.038839847 -0.033302817
000210 03 04 6d 3e 6d e1 10 be 5d 80 3b 3e 66 5e 08 3e
       0.23146062 -0.14148493 0.18310685 0.1331726
000220 79 44 d6 bd c0 53 b8 3d 7c 89 65 bd 8c c3 13 3e
       -0.10462279 0.09000349 -0.05603932 0.14430064
000230 d4 1b b1 3d 34 0c ee bd bb 0b 52 be 13 31 1a bb
       0.08647886 -0.11623421 -0.20512287 -0.0023527786
000240 a7 7c a0 3d 88 99 bd bc 15 0c ef bd 50 9b 90 3d
       0.078362755 -0.023144498 -0.11672226 0.070608735
000250 18 29 93 3d 47 fb 17 be c5 c8 ce bd 6f 42 9a bd
       0.071855724 -0.14841948 -0.100968875 -0.075322025
000260 2c b5 88 bd 38 a1 17 3e 36 4f 95 ba da 74 85 bd
       -0.06675181 0.14807594 -0.0011391405 -0.06516428
000270 74 b5 d2 bd f8 98 de bd eb 29 94 3d c0 e3 d8 3d
       -0.10288516 -0.1086902 0.07234558 0.10590315
000280 a3 d4 bd 3c 11 79 e2 3d b7 50 1b bc fb ad ad bd
       0.023172682 0.11058248 -0.009479693 -0.0848045
000290 d2 44 8b be 12 d9 2c 3b 0b b7 2d 3e a5 9e c2 bd
       -0.27200943 0.0026374501 0.16964357 -0.09502915
0002a0 ce 5f f5 bd 8d 9b b3 3d 4f b0 21 be 98 88 93 bd
       -0.11981164 0.08769903 -0.15789913 -0.072037876
0002b0 b6 de ec bd e4 36 90 3c 6c 1e 62 be 32 d4 87 3e
       -0.11565916 0.017604299 -0.22081918 0.2652908
0002c0 93 0b f1 3d 2d 03 a5 3d 6a e6 d5 bc 22 a3 ee 3c
       0.11769786 0.08057246 -0.026110847 0.029130522
0002d0 e2 91 ed 3d 03 e1 33 3c c7 63 4d 3e bc 4a 5b be
       0.116000906 0.01097894 0.20057593 -0.21415228
0002e0 40 1e f6 3d 82 cf cd bd 06 0d 2d be fd 10 40 be
       0.120174885 -0.100493446 -0.168995 -0.1875648
0002f0 52 0b 81 3d 92 2e 2e be 79 2b f3 3d 65 79 1f be
       0.06300987 -0.17009953 0.11873526 -0.15573652
000300 b4 6d c0 3c 7d dc 21 3e 5b 79 26 3e 77 e0 a2 bd
       0.02348981 0.15806766 0.16257231 -0.079529695
000310 b8 6a e7 bc 48 98 54 be 22 ba 24 bd 8b 7a cf 3c
       -0.02824913 -0.20761216 -0.040216573 0.025326988
000320 a4 8b 98 3d 87 e4 11 be 85 66 7e 3e a4 a8 00 be
       0.07448509 -0.14247333 0.24843796 -0.12564331
000330 bc 31 bb 3c d8 89 a6 3c dc b5 d7 3c b8 cd 3b 3e
       0.022850864 0.0203294 0.026331834 0.18340194
000340 e1 b7 bb bc 5a ab 7d bc bc e8 84 3d 77 58 13 be
       -0.022914829 -0.015482748 0.06489703 -0.14389215
000350 25 9f 5e 3c 94 70 ec 3c 77 01 0a 3e d2 0a 51 bd
       0.013587748 0.028862275 0.13477121 -0.05103571
000360 7c c4 13 bd bb 62 08 3e 50 24 40 bd 5c 79 48 3e
       -0.036076054 0.13318913 -0.04690963 0.19577545
000370 c6 94 22 be 9d 5b d9 bc d6 ff 27 bd af 4d 63 3c
       -0.15877065 -0.026532942 -0.04101547 0.013873502
000380 7c a3 40 3c d2 3d 33 3d a7 63 26 be 21 46 f4 3c
       0.011757728 0.04376013 -0.16248952 0.029818596
000390 13 ba 85 bd 49 a6 04 3e 55 e5 0f be f9 19 7e bd
       -0.065296315 0.12954058 -0.14052327 -0.06203649
0003a0 71 c9 da bc db 26 5b be 1c 45 37 be 5c b9 45 3e
       -0.026707383 -0.21401541 -0.17897457 0.1930899
0003b0 b6 78 3c 3d 6a 26 82 be 8a 57 5f be 11 6b 4e bd
       0.046013556 -0.25419933 -0.21810737 -0.050395075
0003c0 8b 7f 35 bd 7c 3e df bd e2 db 8b 3b 47 17 7a be
       -0.044311088 -0.1090059 0.0042681554 -0.24422942
0003d0 e4 77 69 be 9c 3b 0d 3e 97 d6 fe 3d 85 d0 d7 3c
       -0.22799641 0.1379227 0.124432735 0.026344547
0003e0 09 96 c1 3b 46 55 37 3d e1 f0 fe 3c df e6 da bd
       0.005907778 0.044759057 0.03112072 -0.106885664
0003f0 0f c6 a2 bd 8d e0 c7 3d 54 35 8c 3e e2 9a 66 be
       -0.07947933 0.097596265 0.27384436 -0.2252002
